<?xml version="1.0"?>
<net name="main_graph" version="11">
	<layers>
		<layer id="0" name="onnx::Gather_0" type="Parameter" version="opset1">
			<data shape="1,2,33,201" element_type="f32" />
			<rt_info>
				<attribute name="old_api_map_element_type" version="0" value="f16" />
			</rt_info>
			<output>
				<port id="0" precision="FP32" names="onnx::Gather_0">
					<dim>1</dim>
					<dim>2</dim>
					<dim>33</dim>
					<dim>201</dim>
				</port>
			</output>
		</layer>
		<layer id="1" name="Constant_60711_compressed" type="Const" version="opset1">
			<data element_type="f16" shape="1, 1, 256" offset="0" size="512" />
			<output>
				<port id="0" precision="FP16">
					<dim>1</dim>
					<dim>1</dim>
					<dim>256</dim>
				</port>
			</output>
		</layer>
		<layer id="2" name="Constant_60711" type="Convert" version="opset1">
			<data destination_type="f32" />
			<rt_info>
				<attribute name="decompression" version="0" />
			</rt_info>
			<input>
				<port id="0" precision="FP16">
					<dim>1</dim>
					<dim>1</dim>
					<dim>256</dim>
				</port>
			</input>
			<output>
				<port id="1" precision="FP32">
					<dim>1</dim>
					<dim>1</dim>
					<dim>256</dim>
				</port>
			</output>
		</layer>
		<layer id="3" name="Constant_60708_compressed" type="Const" version="opset1">
			<data element_type="f16" shape="1, 1, 64" offset="512" size="128" />
			<output>
				<port id="0" precision="FP16">
					<dim>1</dim>
					<dim>1</dim>
					<dim>64</dim>
				</port>
			</output>
		</layer>
		<layer id="4" name="Constant_60708" type="Convert" version="opset1">
			<data destination_type="f32" />
			<rt_info>
				<attribute name="decompression" version="0" />
			</rt_info>
			<input>
				<port id="0" precision="FP16">
					<dim>1</dim>
					<dim>1</dim>
					<dim>64</dim>
				</port>
			</input>
			<output>
				<port id="1" precision="FP32">
					<dim>1</dim>
					<dim>1</dim>
					<dim>64</dim>
				</port>
			</output>
		</layer>
		<layer id="5" name="Constant_60702_compressed" type="Const" version="opset1">
			<data element_type="f16" shape="1, 1, 256" offset="640" size="512" />
			<output>
				<port id="0" precision="FP16">
					<dim>1</dim>
					<dim>1</dim>
					<dim>256</dim>
				</port>
			</output>
		</layer>
		<layer id="6" name="Constant_60702" type="Convert" version="opset1">
			<data destination_type="f32" />
			<rt_info>
				<attribute name="decompression" version="0" />
			</rt_info>
			<input>
				<port id="0" precision="FP16">
					<dim>1</dim>
					<dim>1</dim>
					<dim>256</dim>
				</port>
			</input>
			<output>
				<port id="1" precision="FP32">
					<dim>1</dim>
					<dim>1</dim>
					<dim>256</dim>
				</port>
			</output>
		</layer>
		<layer id="7" name="Constant_60698_compressed" type="Const" version="opset1">
			<data element_type="f16" shape="1, 1, 256" offset="1152" size="512" />
			<output>
				<port id="0" precision="FP16">
					<dim>1</dim>
					<dim>1</dim>
					<dim>256</dim>
				</port>
			</output>
		</layer>
		<layer id="8" name="Constant_60698" type="Convert" version="opset1">
			<data destination_type="f32" />
			<rt_info>
				<attribute name="decompression" version="0" />
			</rt_info>
			<input>
				<port id="0" precision="FP16">
					<dim>1</dim>
					<dim>1</dim>
					<dim>256</dim>
				</port>
			</input>
			<output>
				<port id="1" precision="FP32">
					<dim>1</dim>
					<dim>1</dim>
					<dim>256</dim>
				</port>
			</output>
		</layer>
		<layer id="9" name="Constant_60695_compressed" type="Const" version="opset1">
			<data element_type="f16" shape="1, 1, 64" offset="1664" size="128" />
			<output>
				<port id="0" precision="FP16">
					<dim>1</dim>
					<dim>1</dim>
					<dim>64</dim>
				</port>
			</output>
		</layer>
		<layer id="10" name="Constant_60695" type="Convert" version="opset1">
			<data destination_type="f32" />
			<rt_info>
				<attribute name="decompression" version="0" />
			</rt_info>
			<input>
				<port id="0" precision="FP16">
					<dim>1</dim>
					<dim>1</dim>
					<dim>64</dim>
				</port>
			</input>
			<output>
				<port id="1" precision="FP32">
					<dim>1</dim>
					<dim>1</dim>
					<dim>64</dim>
				</port>
			</output>
		</layer>
		<layer id="11" name="Constant_60689_compressed" type="Const" version="opset1">
			<data element_type="f16" shape="1, 1, 256" offset="1792" size="512" />
			<output>
				<port id="0" precision="FP16">
					<dim>1</dim>
					<dim>1</dim>
					<dim>256</dim>
				</port>
			</output>
		</layer>
		<layer id="12" name="Constant_60689" type="Convert" version="opset1">
			<data destination_type="f32" />
			<rt_info>
				<attribute name="decompression" version="0" />
			</rt_info>
			<input>
				<port id="0" precision="FP16">
					<dim>1</dim>
					<dim>1</dim>
					<dim>256</dim>
				</port>
			</input>
			<output>
				<port id="1" precision="FP32">
					<dim>1</dim>
					<dim>1</dim>
					<dim>256</dim>
				</port>
			</output>
		</layer>
		<layer id="13" name="Constant_60685_compressed" type="Const" version="opset1">
			<data element_type="f16" shape="1, 1, 256" offset="2304" size="512" />
			<output>
				<port id="0" precision="FP16">
					<dim>1</dim>
					<dim>1</dim>
					<dim>256</dim>
				</port>
			</output>
		</layer>
		<layer id="14" name="Constant_60685" type="Convert" version="opset1">
			<data destination_type="f32" />
			<rt_info>
				<attribute name="decompression" version="0" />
			</rt_info>
			<input>
				<port id="0" precision="FP16">
					<dim>1</dim>
					<dim>1</dim>
					<dim>256</dim>
				</port>
			</input>
			<output>
				<port id="1" precision="FP32">
					<dim>1</dim>
					<dim>1</dim>
					<dim>256</dim>
				</port>
			</output>
		</layer>
		<layer id="15" name="Constant_60682_compressed" type="Const" version="opset1">
			<data element_type="f16" shape="1, 1, 64" offset="2816" size="128" />
			<output>
				<port id="0" precision="FP16">
					<dim>1</dim>
					<dim>1</dim>
					<dim>64</dim>
				</port>
			</output>
		</layer>
		<layer id="16" name="Constant_60682" type="Convert" version="opset1">
			<data destination_type="f32" />
			<rt_info>
				<attribute name="decompression" version="0" />
			</rt_info>
			<input>
				<port id="0" precision="FP16">
					<dim>1</dim>
					<dim>1</dim>
					<dim>64</dim>
				</port>
			</input>
			<output>
				<port id="1" precision="FP32">
					<dim>1</dim>
					<dim>1</dim>
					<dim>64</dim>
				</port>
			</output>
		</layer>
		<layer id="17" name="Constant_60676_compressed" type="Const" version="opset1">
			<data element_type="f16" shape="1, 1, 256" offset="2944" size="512" />
			<output>
				<port id="0" precision="FP16">
					<dim>1</dim>
					<dim>1</dim>
					<dim>256</dim>
				</port>
			</output>
		</layer>
		<layer id="18" name="Constant_60676" type="Convert" version="opset1">
			<data destination_type="f32" />
			<rt_info>
				<attribute name="decompression" version="0" />
			</rt_info>
			<input>
				<port id="0" precision="FP16">
					<dim>1</dim>
					<dim>1</dim>
					<dim>256</dim>
				</port>
			</input>
			<output>
				<port id="1" precision="FP32">
					<dim>1</dim>
					<dim>1</dim>
					<dim>256</dim>
				</port>
			</output>
		</layer>
		<layer id="19" name="Constant_60672_compressed" type="Const" version="opset1">
			<data element_type="f16" shape="1, 1, 256" offset="3456" size="512" />
			<output>
				<port id="0" precision="FP16">
					<dim>1</dim>
					<dim>1</dim>
					<dim>256</dim>
				</port>
			</output>
		</layer>
		<layer id="20" name="Constant_60672" type="Convert" version="opset1">
			<data destination_type="f32" />
			<rt_info>
				<attribute name="decompression" version="0" />
			</rt_info>
			<input>
				<port id="0" precision="FP16">
					<dim>1</dim>
					<dim>1</dim>
					<dim>256</dim>
				</port>
			</input>
			<output>
				<port id="1" precision="FP32">
					<dim>1</dim>
					<dim>1</dim>
					<dim>256</dim>
				</port>
			</output>
		</layer>
		<layer id="21" name="Constant_60669_compressed" type="Const" version="opset1">
			<data element_type="f16" shape="1, 1, 64" offset="3968" size="128" />
			<output>
				<port id="0" precision="FP16">
					<dim>1</dim>
					<dim>1</dim>
					<dim>64</dim>
				</port>
			</output>
		</layer>
		<layer id="22" name="Constant_60669" type="Convert" version="opset1">
			<data destination_type="f32" />
			<rt_info>
				<attribute name="decompression" version="0" />
			</rt_info>
			<input>
				<port id="0" precision="FP16">
					<dim>1</dim>
					<dim>1</dim>
					<dim>64</dim>
				</port>
			</input>
			<output>
				<port id="1" precision="FP32">
					<dim>1</dim>
					<dim>1</dim>
					<dim>64</dim>
				</port>
			</output>
		</layer>
		<layer id="23" name="Constant_60663_compressed" type="Const" version="opset1">
			<data element_type="f16" shape="1, 1, 256" offset="4096" size="512" />
			<output>
				<port id="0" precision="FP16">
					<dim>1</dim>
					<dim>1</dim>
					<dim>256</dim>
				</port>
			</output>
		</layer>
		<layer id="24" name="Constant_60663" type="Convert" version="opset1">
			<data destination_type="f32" />
			<rt_info>
				<attribute name="decompression" version="0" />
			</rt_info>
			<input>
				<port id="0" precision="FP16">
					<dim>1</dim>
					<dim>1</dim>
					<dim>256</dim>
				</port>
			</input>
			<output>
				<port id="1" precision="FP32">
					<dim>1</dim>
					<dim>1</dim>
					<dim>256</dim>
				</port>
			</output>
		</layer>
		<layer id="25" name="Constant_60659_compressed" type="Const" version="opset1">
			<data element_type="f16" shape="1, 1, 256" offset="4608" size="512" />
			<output>
				<port id="0" precision="FP16">
					<dim>1</dim>
					<dim>1</dim>
					<dim>256</dim>
				</port>
			</output>
		</layer>
		<layer id="26" name="Constant_60659" type="Convert" version="opset1">
			<data destination_type="f32" />
			<rt_info>
				<attribute name="decompression" version="0" />
			</rt_info>
			<input>
				<port id="0" precision="FP16">
					<dim>1</dim>
					<dim>1</dim>
					<dim>256</dim>
				</port>
			</input>
			<output>
				<port id="1" precision="FP32">
					<dim>1</dim>
					<dim>1</dim>
					<dim>256</dim>
				</port>
			</output>
		</layer>
		<layer id="27" name="Constant_60656_compressed" type="Const" version="opset1">
			<data element_type="f16" shape="1, 1, 64" offset="5120" size="128" />
			<output>
				<port id="0" precision="FP16">
					<dim>1</dim>
					<dim>1</dim>
					<dim>64</dim>
				</port>
			</output>
		</layer>
		<layer id="28" name="Constant_60656" type="Convert" version="opset1">
			<data destination_type="f32" />
			<rt_info>
				<attribute name="decompression" version="0" />
			</rt_info>
			<input>
				<port id="0" precision="FP16">
					<dim>1</dim>
					<dim>1</dim>
					<dim>64</dim>
				</port>
			</input>
			<output>
				<port id="1" precision="FP32">
					<dim>1</dim>
					<dim>1</dim>
					<dim>64</dim>
				</port>
			</output>
		</layer>
		<layer id="29" name="Constant_60650_compressed" type="Const" version="opset1">
			<data element_type="f16" shape="1, 1, 256" offset="5248" size="512" />
			<output>
				<port id="0" precision="FP16">
					<dim>1</dim>
					<dim>1</dim>
					<dim>256</dim>
				</port>
			</output>
		</layer>
		<layer id="30" name="Constant_60650" type="Convert" version="opset1">
			<data destination_type="f32" />
			<rt_info>
				<attribute name="decompression" version="0" />
			</rt_info>
			<input>
				<port id="0" precision="FP16">
					<dim>1</dim>
					<dim>1</dim>
					<dim>256</dim>
				</port>
			</input>
			<output>
				<port id="1" precision="FP32">
					<dim>1</dim>
					<dim>1</dim>
					<dim>256</dim>
				</port>
			</output>
		</layer>
		<layer id="31" name="Constant_60646_compressed" type="Const" version="opset1">
			<data element_type="f16" shape="1, 1, 256" offset="5760" size="512" />
			<output>
				<port id="0" precision="FP16">
					<dim>1</dim>
					<dim>1</dim>
					<dim>256</dim>
				</port>
			</output>
		</layer>
		<layer id="32" name="Constant_60646" type="Convert" version="opset1">
			<data destination_type="f32" />
			<rt_info>
				<attribute name="decompression" version="0" />
			</rt_info>
			<input>
				<port id="0" precision="FP16">
					<dim>1</dim>
					<dim>1</dim>
					<dim>256</dim>
				</port>
			</input>
			<output>
				<port id="1" precision="FP32">
					<dim>1</dim>
					<dim>1</dim>
					<dim>256</dim>
				</port>
			</output>
		</layer>
		<layer id="33" name="Constant_60643_compressed" type="Const" version="opset1">
			<data element_type="f16" shape="1, 1, 64" offset="6272" size="128" />
			<output>
				<port id="0" precision="FP16">
					<dim>1</dim>
					<dim>1</dim>
					<dim>64</dim>
				</port>
			</output>
		</layer>
		<layer id="34" name="Constant_60643" type="Convert" version="opset1">
			<data destination_type="f32" />
			<rt_info>
				<attribute name="decompression" version="0" />
			</rt_info>
			<input>
				<port id="0" precision="FP16">
					<dim>1</dim>
					<dim>1</dim>
					<dim>64</dim>
				</port>
			</input>
			<output>
				<port id="1" precision="FP32">
					<dim>1</dim>
					<dim>1</dim>
					<dim>64</dim>
				</port>
			</output>
		</layer>
		<layer id="35" name="Constant_60637_compressed" type="Const" version="opset1">
			<data element_type="f16" shape="1, 1, 256" offset="6400" size="512" />
			<output>
				<port id="0" precision="FP16">
					<dim>1</dim>
					<dim>1</dim>
					<dim>256</dim>
				</port>
			</output>
		</layer>
		<layer id="36" name="Constant_60637" type="Convert" version="opset1">
			<data destination_type="f32" />
			<rt_info>
				<attribute name="decompression" version="0" />
			</rt_info>
			<input>
				<port id="0" precision="FP16">
					<dim>1</dim>
					<dim>1</dim>
					<dim>256</dim>
				</port>
			</input>
			<output>
				<port id="1" precision="FP32">
					<dim>1</dim>
					<dim>1</dim>
					<dim>256</dim>
				</port>
			</output>
		</layer>
		<layer id="37" name="Constant_60633_compressed" type="Const" version="opset1">
			<data element_type="f16" shape="1, 1, 256" offset="6912" size="512" />
			<output>
				<port id="0" precision="FP16">
					<dim>1</dim>
					<dim>1</dim>
					<dim>256</dim>
				</port>
			</output>
		</layer>
		<layer id="38" name="Constant_60633" type="Convert" version="opset1">
			<data destination_type="f32" />
			<rt_info>
				<attribute name="decompression" version="0" />
			</rt_info>
			<input>
				<port id="0" precision="FP16">
					<dim>1</dim>
					<dim>1</dim>
					<dim>256</dim>
				</port>
			</input>
			<output>
				<port id="1" precision="FP32">
					<dim>1</dim>
					<dim>1</dim>
					<dim>256</dim>
				</port>
			</output>
		</layer>
		<layer id="39" name="Constant_60630_compressed" type="Const" version="opset1">
			<data element_type="f16" shape="1, 1, 64" offset="7424" size="128" />
			<output>
				<port id="0" precision="FP16">
					<dim>1</dim>
					<dim>1</dim>
					<dim>64</dim>
				</port>
			</output>
		</layer>
		<layer id="40" name="Constant_60630" type="Convert" version="opset1">
			<data destination_type="f32" />
			<rt_info>
				<attribute name="decompression" version="0" />
			</rt_info>
			<input>
				<port id="0" precision="FP16">
					<dim>1</dim>
					<dim>1</dim>
					<dim>64</dim>
				</port>
			</input>
			<output>
				<port id="1" precision="FP32">
					<dim>1</dim>
					<dim>1</dim>
					<dim>64</dim>
				</port>
			</output>
		</layer>
		<layer id="41" name="Constant_60624_compressed" type="Const" version="opset1">
			<data element_type="f16" shape="1, 1, 256" offset="7552" size="512" />
			<output>
				<port id="0" precision="FP16">
					<dim>1</dim>
					<dim>1</dim>
					<dim>256</dim>
				</port>
			</output>
		</layer>
		<layer id="42" name="Constant_60624" type="Convert" version="opset1">
			<data destination_type="f32" />
			<rt_info>
				<attribute name="decompression" version="0" />
			</rt_info>
			<input>
				<port id="0" precision="FP16">
					<dim>1</dim>
					<dim>1</dim>
					<dim>256</dim>
				</port>
			</input>
			<output>
				<port id="1" precision="FP32">
					<dim>1</dim>
					<dim>1</dim>
					<dim>256</dim>
				</port>
			</output>
		</layer>
		<layer id="43" name="Constant_60620_compressed" type="Const" version="opset1">
			<data element_type="f16" shape="1, 1, 256" offset="8064" size="512" />
			<output>
				<port id="0" precision="FP16">
					<dim>1</dim>
					<dim>1</dim>
					<dim>256</dim>
				</port>
			</output>
		</layer>
		<layer id="44" name="Constant_60620" type="Convert" version="opset1">
			<data destination_type="f32" />
			<rt_info>
				<attribute name="decompression" version="0" />
			</rt_info>
			<input>
				<port id="0" precision="FP16">
					<dim>1</dim>
					<dim>1</dim>
					<dim>256</dim>
				</port>
			</input>
			<output>
				<port id="1" precision="FP32">
					<dim>1</dim>
					<dim>1</dim>
					<dim>256</dim>
				</port>
			</output>
		</layer>
		<layer id="45" name="Constant_60617_compressed" type="Const" version="opset1">
			<data element_type="f16" shape="1, 1, 64" offset="8576" size="128" />
			<output>
				<port id="0" precision="FP16">
					<dim>1</dim>
					<dim>1</dim>
					<dim>64</dim>
				</port>
			</output>
		</layer>
		<layer id="46" name="Constant_60617" type="Convert" version="opset1">
			<data destination_type="f32" />
			<rt_info>
				<attribute name="decompression" version="0" />
			</rt_info>
			<input>
				<port id="0" precision="FP16">
					<dim>1</dim>
					<dim>1</dim>
					<dim>64</dim>
				</port>
			</input>
			<output>
				<port id="1" precision="FP32">
					<dim>1</dim>
					<dim>1</dim>
					<dim>64</dim>
				</port>
			</output>
		</layer>
		<layer id="47" name="Constant_60611_compressed" type="Const" version="opset1">
			<data element_type="f16" shape="1, 1, 256" offset="8704" size="512" />
			<output>
				<port id="0" precision="FP16">
					<dim>1</dim>
					<dim>1</dim>
					<dim>256</dim>
				</port>
			</output>
		</layer>
		<layer id="48" name="Constant_60611" type="Convert" version="opset1">
			<data destination_type="f32" />
			<rt_info>
				<attribute name="decompression" version="0" />
			</rt_info>
			<input>
				<port id="0" precision="FP16">
					<dim>1</dim>
					<dim>1</dim>
					<dim>256</dim>
				</port>
			</input>
			<output>
				<port id="1" precision="FP32">
					<dim>1</dim>
					<dim>1</dim>
					<dim>256</dim>
				</port>
			</output>
		</layer>
		<layer id="49" name="/Constant" type="Const" version="opset1">
			<data element_type="i64" shape="" offset="9216" size="8" />
			<output>
				<port id="0" precision="I64" names="/Constant_output_0" />
			</output>
		</layer>
		<layer id="50" name="Constant_201" type="Const" version="opset1">
			<data element_type="i64" shape="" offset="9224" size="8" />
			<output>
				<port id="0" precision="I64" />
			</output>
		</layer>
		<layer id="51" name="/Gather" type="Gather" version="opset8">
			<data batch_dims="0" />
			<input>
				<port id="0" precision="FP32">
					<dim>1</dim>
					<dim>2</dim>
					<dim>33</dim>
					<dim>201</dim>
				</port>
				<port id="1" precision="I64" />
				<port id="2" precision="I64" />
			</input>
			<output>
				<port id="3" precision="FP32" names="/Gather_output_0">
					<dim>1</dim>
					<dim>33</dim>
					<dim>201</dim>
				</port>
			</output>
		</layer>
		<layer id="52" name="Constant_60608_compressed" type="Const" version="opset1">
			<data element_type="f16" shape="1, 1, 1" offset="9232" size="2" />
			<output>
				<port id="0" precision="FP16">
					<dim>1</dim>
					<dim>1</dim>
					<dim>1</dim>
				</port>
			</output>
		</layer>
		<layer id="53" name="Constant_60608" type="Convert" version="opset1">
			<data destination_type="f32" />
			<rt_info>
				<attribute name="decompression" version="0" />
			</rt_info>
			<input>
				<port id="0" precision="FP16">
					<dim>1</dim>
					<dim>1</dim>
					<dim>1</dim>
				</port>
			</input>
			<output>
				<port id="1" precision="FP32">
					<dim>1</dim>
					<dim>1</dim>
					<dim>1</dim>
				</port>
			</output>
		</layer>
		<layer id="54" name="/Pow" type="Power" version="opset1">
			<data auto_broadcast="numpy" />
			<input>
				<port id="0" precision="FP32">
					<dim>1</dim>
					<dim>33</dim>
					<dim>201</dim>
				</port>
				<port id="1" precision="FP32">
					<dim>1</dim>
					<dim>1</dim>
					<dim>1</dim>
				</port>
			</input>
			<output>
				<port id="2" precision="FP32" names="/Pow_output_0">
					<dim>1</dim>
					<dim>33</dim>
					<dim>201</dim>
				</port>
			</output>
		</layer>
		<layer id="55" name="/Constant_1" type="Const" version="opset1">
			<data element_type="i64" shape="" offset="9224" size="8" />
			<output>
				<port id="0" precision="I64" names="/Constant_1_output_0" />
			</output>
		</layer>
		<layer id="56" name="Constant_205" type="Const" version="opset1">
			<data element_type="i64" shape="" offset="9224" size="8" />
			<output>
				<port id="0" precision="I64" />
			</output>
		</layer>
		<layer id="57" name="/Gather_1" type="Gather" version="opset8">
			<data batch_dims="0" />
			<input>
				<port id="0" precision="FP32">
					<dim>1</dim>
					<dim>2</dim>
					<dim>33</dim>
					<dim>201</dim>
				</port>
				<port id="1" precision="I64" />
				<port id="2" precision="I64" />
			</input>
			<output>
				<port id="3" precision="FP32" names="/Gather_1_output_0">
					<dim>1</dim>
					<dim>33</dim>
					<dim>201</dim>
				</port>
			</output>
		</layer>
		<layer id="58" name="Constant_60609_compressed" type="Const" version="opset1">
			<data element_type="f16" shape="1, 1, 1" offset="9234" size="2" />
			<output>
				<port id="0" precision="FP16">
					<dim>1</dim>
					<dim>1</dim>
					<dim>1</dim>
				</port>
			</output>
		</layer>
		<layer id="59" name="Constant_60609" type="Convert" version="opset1">
			<data destination_type="f32" />
			<rt_info>
				<attribute name="decompression" version="0" />
			</rt_info>
			<input>
				<port id="0" precision="FP16">
					<dim>1</dim>
					<dim>1</dim>
					<dim>1</dim>
				</port>
			</input>
			<output>
				<port id="1" precision="FP32">
					<dim>1</dim>
					<dim>1</dim>
					<dim>1</dim>
				</port>
			</output>
		</layer>
		<layer id="60" name="/Pow_1" type="Power" version="opset1">
			<data auto_broadcast="numpy" />
			<input>
				<port id="0" precision="FP32">
					<dim>1</dim>
					<dim>33</dim>
					<dim>201</dim>
				</port>
				<port id="1" precision="FP32">
					<dim>1</dim>
					<dim>1</dim>
					<dim>1</dim>
				</port>
			</input>
			<output>
				<port id="2" precision="FP32" names="/Pow_1_output_0">
					<dim>1</dim>
					<dim>33</dim>
					<dim>201</dim>
				</port>
			</output>
		</layer>
		<layer id="61" name="/Add" type="Add" version="opset1">
			<data auto_broadcast="numpy" />
			<input>
				<port id="0" precision="FP32">
					<dim>1</dim>
					<dim>33</dim>
					<dim>201</dim>
				</port>
				<port id="1" precision="FP32">
					<dim>1</dim>
					<dim>33</dim>
					<dim>201</dim>
				</port>
			</input>
			<output>
				<port id="2" precision="FP32" names="/Add_output_0">
					<dim>1</dim>
					<dim>33</dim>
					<dim>201</dim>
				</port>
			</output>
		</layer>
		<layer id="62" name="/Sqrt" type="Sqrt" version="opset1">
			<input>
				<port id="0" precision="FP32">
					<dim>1</dim>
					<dim>33</dim>
					<dim>201</dim>
				</port>
			</input>
			<output>
				<port id="1" precision="FP32" names="/Sqrt_output_0">
					<dim>1</dim>
					<dim>33</dim>
					<dim>201</dim>
				</port>
			</output>
		</layer>
		<layer id="63" name="/Constant_4" type="Const" version="opset1">
			<data element_type="i64" shape="1" offset="9224" size="8" />
			<output>
				<port id="0" precision="I64" names="/Constant_4_output_0">
					<dim>1</dim>
				</port>
			</output>
		</layer>
		<layer id="64" name="/Unsqueeze" type="Unsqueeze" version="opset1">
			<input>
				<port id="0" precision="FP32">
					<dim>1</dim>
					<dim>33</dim>
					<dim>201</dim>
				</port>
				<port id="1" precision="I64">
					<dim>1</dim>
				</port>
			</input>
			<output>
				<port id="2" precision="FP32" names="/Unsqueeze_output_0">
					<dim>1</dim>
					<dim>1</dim>
					<dim>33</dim>
					<dim>201</dim>
				</port>
			</output>
		</layer>
		<layer id="65" name="/Concat" type="Concat" version="opset1">
			<data axis="1" />
			<input>
				<port id="0" precision="FP32">
					<dim>1</dim>
					<dim>1</dim>
					<dim>33</dim>
					<dim>201</dim>
				</port>
				<port id="1" precision="FP32">
					<dim>1</dim>
					<dim>2</dim>
					<dim>33</dim>
					<dim>201</dim>
				</port>
			</input>
			<output>
				<port id="2" precision="FP32" names="/Concat_output_0">
					<dim>1</dim>
					<dim>3</dim>
					<dim>33</dim>
					<dim>201</dim>
				</port>
			</output>
		</layer>
		<layer id="66" name="dense_encoder.conv_1.0.weight_compressed" type="Const" version="opset1">
			<data element_type="f16" shape="64, 3, 1, 1" offset="9236" size="384" />
			<output>
				<port id="0" precision="FP16" names="dense_encoder.conv_1.0.weight">
					<dim>64</dim>
					<dim>3</dim>
					<dim>1</dim>
					<dim>1</dim>
				</port>
			</output>
		</layer>
		<layer id="67" name="dense_encoder.conv_1.0.weight" type="Convert" version="opset1">
			<data destination_type="f32" />
			<rt_info>
				<attribute name="decompression" version="0" />
			</rt_info>
			<input>
				<port id="0" precision="FP16">
					<dim>64</dim>
					<dim>3</dim>
					<dim>1</dim>
					<dim>1</dim>
				</port>
			</input>
			<output>
				<port id="1" precision="FP32">
					<dim>64</dim>
					<dim>3</dim>
					<dim>1</dim>
					<dim>1</dim>
				</port>
			</output>
		</layer>
		<layer id="68" name="/dense_encoder/conv_1/conv_1.0/Conv/WithoutBiases" type="Convolution" version="opset1">
			<data strides="1, 1" dilations="1, 1" pads_begin="0, 0" pads_end="0, 0" auto_pad="explicit" />
			<input>
				<port id="0" precision="FP32">
					<dim>1</dim>
					<dim>3</dim>
					<dim>33</dim>
					<dim>201</dim>
				</port>
				<port id="1" precision="FP32">
					<dim>64</dim>
					<dim>3</dim>
					<dim>1</dim>
					<dim>1</dim>
				</port>
			</input>
			<output>
				<port id="2" precision="FP32">
					<dim>1</dim>
					<dim>64</dim>
					<dim>33</dim>
					<dim>201</dim>
				</port>
			</output>
		</layer>
		<layer id="69" name="Reshape_239_compressed" type="Const" version="opset1">
			<data element_type="f16" shape="1, 64, 1, 1" offset="9620" size="128" />
			<output>
				<port id="0" precision="FP16">
					<dim>1</dim>
					<dim>64</dim>
					<dim>1</dim>
					<dim>1</dim>
				</port>
			</output>
		</layer>
		<layer id="70" name="Reshape_239" type="Convert" version="opset1">
			<data destination_type="f32" />
			<rt_info>
				<attribute name="decompression" version="0" />
			</rt_info>
			<input>
				<port id="0" precision="FP16">
					<dim>1</dim>
					<dim>64</dim>
					<dim>1</dim>
					<dim>1</dim>
				</port>
			</input>
			<output>
				<port id="1" precision="FP32">
					<dim>1</dim>
					<dim>64</dim>
					<dim>1</dim>
					<dim>1</dim>
				</port>
			</output>
		</layer>
		<layer id="71" name="/dense_encoder/conv_1/conv_1.0/Conv" type="Add" version="opset1">
			<data auto_broadcast="numpy" />
			<input>
				<port id="0" precision="FP32">
					<dim>1</dim>
					<dim>64</dim>
					<dim>33</dim>
					<dim>201</dim>
				</port>
				<port id="1" precision="FP32">
					<dim>1</dim>
					<dim>64</dim>
					<dim>1</dim>
					<dim>1</dim>
				</port>
			</input>
			<output>
				<port id="2" precision="FP32" names="/dense_encoder/conv_1/conv_1.0/Conv_output_0">
					<dim>1</dim>
					<dim>64</dim>
					<dim>33</dim>
					<dim>201</dim>
				</port>
			</output>
		</layer>
		<layer id="72" name="Constant_241" type="Const" version="opset1">
			<data element_type="i64" shape="2" offset="9748" size="16" />
			<output>
				<port id="0" precision="I64">
					<dim>2</dim>
				</port>
			</output>
		</layer>
		<layer id="73" name="MVN_242" type="MVN" version="opset6">
			<data eps="9.9999997473787516e-06" normalize_variance="true" eps_mode="INSIDE_SQRT" />
			<input>
				<port id="0" precision="FP32">
					<dim>1</dim>
					<dim>64</dim>
					<dim>33</dim>
					<dim>201</dim>
				</port>
				<port id="1" precision="I64">
					<dim>2</dim>
				</port>
			</input>
			<output>
				<port id="2" precision="FP32" names="/dense_encoder/conv_1/conv_1.1/InstanceNormalization_output_0">
					<dim>1</dim>
					<dim>64</dim>
					<dim>33</dim>
					<dim>201</dim>
				</port>
			</output>
		</layer>
		<layer id="74" name="onnx::PRelu_2652_compressed" type="Const" version="opset1">
			<data element_type="f16" shape="64, 1, 1" offset="9764" size="128" />
			<output>
				<port id="0" precision="FP16" names="onnx::PRelu_2646,onnx::PRelu_2652,onnx::PRelu_2658,onnx::PRelu_2664,onnx::PRelu_2670,onnx::PRelu_2671,onnx::PRelu_2813,onnx::PRelu_2819,onnx::PRelu_2825,onnx::PRelu_2831,onnx::PRelu_2841,onnx::PRelu_2847,onnx::PRelu_2853,onnx::PRelu_2859,onnx::PRelu_2867">
					<dim>64</dim>
					<dim>1</dim>
					<dim>1</dim>
				</port>
			</output>
		</layer>
		<layer id="75" name="onnx::PRelu_2652" type="Convert" version="opset1">
			<data destination_type="f32" />
			<rt_info>
				<attribute name="decompression" version="0" />
			</rt_info>
			<input>
				<port id="0" precision="FP16">
					<dim>64</dim>
					<dim>1</dim>
					<dim>1</dim>
				</port>
			</input>
			<output>
				<port id="1" precision="FP32">
					<dim>64</dim>
					<dim>1</dim>
					<dim>1</dim>
				</port>
			</output>
		</layer>
		<layer id="76" name="/dense_encoder/conv_1/conv_1.2/PRelu" type="PReLU" version="opset1">
			<input>
				<port id="0" precision="FP32">
					<dim>1</dim>
					<dim>64</dim>
					<dim>33</dim>
					<dim>201</dim>
				</port>
				<port id="1" precision="FP32">
					<dim>64</dim>
					<dim>1</dim>
					<dim>1</dim>
				</port>
			</input>
			<output>
				<port id="2" precision="FP32" names="/dense_encoder/conv_1/conv_1.2/PRelu_output_0">
					<dim>1</dim>
					<dim>64</dim>
					<dim>33</dim>
					<dim>201</dim>
				</port>
			</output>
		</layer>
		<layer id="77" name="dense_encoder.dilated_dense.conv1.weight_compressed" type="Const" version="opset1">
			<data element_type="f16" shape="64, 64, 2, 3" offset="9892" size="49152" />
			<output>
				<port id="0" precision="FP16" names="dense_encoder.dilated_dense.conv1.weight">
					<dim>64</dim>
					<dim>64</dim>
					<dim>2</dim>
					<dim>3</dim>
				</port>
			</output>
		</layer>
		<layer id="78" name="dense_encoder.dilated_dense.conv1.weight" type="Convert" version="opset1">
			<data destination_type="f32" />
			<rt_info>
				<attribute name="decompression" version="0" />
			</rt_info>
			<input>
				<port id="0" precision="FP16">
					<dim>64</dim>
					<dim>64</dim>
					<dim>2</dim>
					<dim>3</dim>
				</port>
			</input>
			<output>
				<port id="1" precision="FP32">
					<dim>64</dim>
					<dim>64</dim>
					<dim>2</dim>
					<dim>3</dim>
				</port>
			</output>
		</layer>
		<layer id="79" name="/dense_encoder/dilated_dense/conv1/Conv/WithoutBiases" type="Convolution" version="opset1">
			<data strides="1, 1" dilations="1, 1" pads_begin="1, 1" pads_end="0, 1" auto_pad="explicit" />
			<input>
				<port id="0" precision="FP32">
					<dim>1</dim>
					<dim>64</dim>
					<dim>33</dim>
					<dim>201</dim>
				</port>
				<port id="1" precision="FP32">
					<dim>64</dim>
					<dim>64</dim>
					<dim>2</dim>
					<dim>3</dim>
				</port>
			</input>
			<output>
				<port id="2" precision="FP32">
					<dim>1</dim>
					<dim>64</dim>
					<dim>33</dim>
					<dim>201</dim>
				</port>
			</output>
		</layer>
		<layer id="80" name="Reshape_307_compressed" type="Const" version="opset1">
			<data element_type="f16" shape="1, 64, 1, 1" offset="59044" size="128" />
			<output>
				<port id="0" precision="FP16">
					<dim>1</dim>
					<dim>64</dim>
					<dim>1</dim>
					<dim>1</dim>
				</port>
			</output>
		</layer>
		<layer id="81" name="Reshape_307" type="Convert" version="opset1">
			<data destination_type="f32" />
			<rt_info>
				<attribute name="decompression" version="0" />
			</rt_info>
			<input>
				<port id="0" precision="FP16">
					<dim>1</dim>
					<dim>64</dim>
					<dim>1</dim>
					<dim>1</dim>
				</port>
			</input>
			<output>
				<port id="1" precision="FP32">
					<dim>1</dim>
					<dim>64</dim>
					<dim>1</dim>
					<dim>1</dim>
				</port>
			</output>
		</layer>
		<layer id="82" name="/dense_encoder/dilated_dense/conv1/Conv" type="Add" version="opset1">
			<data auto_broadcast="numpy" />
			<input>
				<port id="0" precision="FP32">
					<dim>1</dim>
					<dim>64</dim>
					<dim>33</dim>
					<dim>201</dim>
				</port>
				<port id="1" precision="FP32">
					<dim>1</dim>
					<dim>64</dim>
					<dim>1</dim>
					<dim>1</dim>
				</port>
			</input>
			<output>
				<port id="2" precision="FP32" names="/dense_encoder/dilated_dense/conv1/Conv_output_0">
					<dim>1</dim>
					<dim>64</dim>
					<dim>33</dim>
					<dim>201</dim>
				</port>
			</output>
		</layer>
		<layer id="83" name="Constant_309" type="Const" version="opset1">
			<data element_type="i64" shape="2" offset="9748" size="16" />
			<output>
				<port id="0" precision="I64">
					<dim>2</dim>
				</port>
			</output>
		</layer>
		<layer id="84" name="MVN_310" type="MVN" version="opset6">
			<data eps="9.9999997473787516e-06" normalize_variance="true" eps_mode="INSIDE_SQRT" />
			<input>
				<port id="0" precision="FP32">
					<dim>1</dim>
					<dim>64</dim>
					<dim>33</dim>
					<dim>201</dim>
				</port>
				<port id="1" precision="I64">
					<dim>2</dim>
				</port>
			</input>
			<output>
				<port id="2" precision="FP32" names="/dense_encoder/dilated_dense/norm1/InstanceNormalization_output_0">
					<dim>1</dim>
					<dim>64</dim>
					<dim>33</dim>
					<dim>201</dim>
				</port>
			</output>
		</layer>
		<layer id="85" name="/dense_encoder/dilated_dense/prelu1/PRelu" type="PReLU" version="opset1">
			<input>
				<port id="0" precision="FP32">
					<dim>1</dim>
					<dim>64</dim>
					<dim>33</dim>
					<dim>201</dim>
				</port>
				<port id="1" precision="FP32">
					<dim>64</dim>
					<dim>1</dim>
					<dim>1</dim>
				</port>
			</input>
			<output>
				<port id="2" precision="FP32" names="/dense_encoder/dilated_dense/prelu1/PRelu_output_0">
					<dim>1</dim>
					<dim>64</dim>
					<dim>33</dim>
					<dim>201</dim>
				</port>
			</output>
		</layer>
		<layer id="86" name="/dense_encoder/dilated_dense/Concat" type="Concat" version="opset1">
			<data axis="1" />
			<input>
				<port id="0" precision="FP32">
					<dim>1</dim>
					<dim>64</dim>
					<dim>33</dim>
					<dim>201</dim>
				</port>
				<port id="1" precision="FP32">
					<dim>1</dim>
					<dim>64</dim>
					<dim>33</dim>
					<dim>201</dim>
				</port>
			</input>
			<output>
				<port id="2" precision="FP32" names="/dense_encoder/dilated_dense/Concat_output_0">
					<dim>1</dim>
					<dim>128</dim>
					<dim>33</dim>
					<dim>201</dim>
				</port>
			</output>
		</layer>
		<layer id="87" name="dense_encoder.dilated_dense.conv2.weight_compressed" type="Const" version="opset1">
			<data element_type="f16" shape="64, 128, 2, 3" offset="59172" size="98304" />
			<output>
				<port id="0" precision="FP16" names="dense_encoder.dilated_dense.conv2.weight">
					<dim>64</dim>
					<dim>128</dim>
					<dim>2</dim>
					<dim>3</dim>
				</port>
			</output>
		</layer>
		<layer id="88" name="dense_encoder.dilated_dense.conv2.weight" type="Convert" version="opset1">
			<data destination_type="f32" />
			<rt_info>
				<attribute name="decompression" version="0" />
			</rt_info>
			<input>
				<port id="0" precision="FP16">
					<dim>64</dim>
					<dim>128</dim>
					<dim>2</dim>
					<dim>3</dim>
				</port>
			</input>
			<output>
				<port id="1" precision="FP32">
					<dim>64</dim>
					<dim>128</dim>
					<dim>2</dim>
					<dim>3</dim>
				</port>
			</output>
		</layer>
		<layer id="89" name="/dense_encoder/dilated_dense/conv2/Conv/WithoutBiases" type="Convolution" version="opset1">
			<data strides="1, 1" dilations="2, 1" pads_begin="2, 1" pads_end="0, 1" auto_pad="explicit" />
			<input>
				<port id="0" precision="FP32">
					<dim>1</dim>
					<dim>128</dim>
					<dim>33</dim>
					<dim>201</dim>
				</port>
				<port id="1" precision="FP32">
					<dim>64</dim>
					<dim>128</dim>
					<dim>2</dim>
					<dim>3</dim>
				</port>
			</input>
			<output>
				<port id="2" precision="FP32">
					<dim>1</dim>
					<dim>64</dim>
					<dim>33</dim>
					<dim>201</dim>
				</port>
			</output>
		</layer>
		<layer id="90" name="Reshape_376_compressed" type="Const" version="opset1">
			<data element_type="f16" shape="1, 64, 1, 1" offset="157476" size="128" />
			<output>
				<port id="0" precision="FP16">
					<dim>1</dim>
					<dim>64</dim>
					<dim>1</dim>
					<dim>1</dim>
				</port>
			</output>
		</layer>
		<layer id="91" name="Reshape_376" type="Convert" version="opset1">
			<data destination_type="f32" />
			<rt_info>
				<attribute name="decompression" version="0" />
			</rt_info>
			<input>
				<port id="0" precision="FP16">
					<dim>1</dim>
					<dim>64</dim>
					<dim>1</dim>
					<dim>1</dim>
				</port>
			</input>
			<output>
				<port id="1" precision="FP32">
					<dim>1</dim>
					<dim>64</dim>
					<dim>1</dim>
					<dim>1</dim>
				</port>
			</output>
		</layer>
		<layer id="92" name="/dense_encoder/dilated_dense/conv2/Conv" type="Add" version="opset1">
			<data auto_broadcast="numpy" />
			<input>
				<port id="0" precision="FP32">
					<dim>1</dim>
					<dim>64</dim>
					<dim>33</dim>
					<dim>201</dim>
				</port>
				<port id="1" precision="FP32">
					<dim>1</dim>
					<dim>64</dim>
					<dim>1</dim>
					<dim>1</dim>
				</port>
			</input>
			<output>
				<port id="2" precision="FP32" names="/dense_encoder/dilated_dense/conv2/Conv_output_0">
					<dim>1</dim>
					<dim>64</dim>
					<dim>33</dim>
					<dim>201</dim>
				</port>
			</output>
		</layer>
		<layer id="93" name="Constant_378" type="Const" version="opset1">
			<data element_type="i64" shape="2" offset="9748" size="16" />
			<output>
				<port id="0" precision="I64">
					<dim>2</dim>
				</port>
			</output>
		</layer>
		<layer id="94" name="MVN_379" type="MVN" version="opset6">
			<data eps="9.9999997473787516e-06" normalize_variance="true" eps_mode="INSIDE_SQRT" />
			<input>
				<port id="0" precision="FP32">
					<dim>1</dim>
					<dim>64</dim>
					<dim>33</dim>
					<dim>201</dim>
				</port>
				<port id="1" precision="I64">
					<dim>2</dim>
				</port>
			</input>
			<output>
				<port id="2" precision="FP32" names="/dense_encoder/dilated_dense/norm2/InstanceNormalization_output_0">
					<dim>1</dim>
					<dim>64</dim>
					<dim>33</dim>
					<dim>201</dim>
				</port>
			</output>
		</layer>
		<layer id="95" name="/dense_encoder/dilated_dense/prelu2/PRelu" type="PReLU" version="opset1">
			<input>
				<port id="0" precision="FP32">
					<dim>1</dim>
					<dim>64</dim>
					<dim>33</dim>
					<dim>201</dim>
				</port>
				<port id="1" precision="FP32">
					<dim>64</dim>
					<dim>1</dim>
					<dim>1</dim>
				</port>
			</input>
			<output>
				<port id="2" precision="FP32" names="/dense_encoder/dilated_dense/prelu2/PRelu_output_0">
					<dim>1</dim>
					<dim>64</dim>
					<dim>33</dim>
					<dim>201</dim>
				</port>
			</output>
		</layer>
		<layer id="96" name="/dense_encoder/dilated_dense/Concat_1" type="Concat" version="opset1">
			<data axis="1" />
			<input>
				<port id="0" precision="FP32">
					<dim>1</dim>
					<dim>64</dim>
					<dim>33</dim>
					<dim>201</dim>
				</port>
				<port id="1" precision="FP32">
					<dim>1</dim>
					<dim>128</dim>
					<dim>33</dim>
					<dim>201</dim>
				</port>
			</input>
			<output>
				<port id="2" precision="FP32" names="/dense_encoder/dilated_dense/Concat_1_output_0">
					<dim>1</dim>
					<dim>192</dim>
					<dim>33</dim>
					<dim>201</dim>
				</port>
			</output>
		</layer>
		<layer id="97" name="dense_encoder.dilated_dense.conv3.weight_compressed" type="Const" version="opset1">
			<data element_type="f16" shape="64, 192, 2, 3" offset="157604" size="147456" />
			<output>
				<port id="0" precision="FP16" names="dense_encoder.dilated_dense.conv3.weight">
					<dim>64</dim>
					<dim>192</dim>
					<dim>2</dim>
					<dim>3</dim>
				</port>
			</output>
		</layer>
		<layer id="98" name="dense_encoder.dilated_dense.conv3.weight" type="Convert" version="opset1">
			<data destination_type="f32" />
			<rt_info>
				<attribute name="decompression" version="0" />
			</rt_info>
			<input>
				<port id="0" precision="FP16">
					<dim>64</dim>
					<dim>192</dim>
					<dim>2</dim>
					<dim>3</dim>
				</port>
			</input>
			<output>
				<port id="1" precision="FP32">
					<dim>64</dim>
					<dim>192</dim>
					<dim>2</dim>
					<dim>3</dim>
				</port>
			</output>
		</layer>
		<layer id="99" name="/dense_encoder/dilated_dense/conv3/Conv/WithoutBiases" type="Convolution" version="opset1">
			<data strides="1, 1" dilations="4, 1" pads_begin="4, 1" pads_end="0, 1" auto_pad="explicit" />
			<input>
				<port id="0" precision="FP32">
					<dim>1</dim>
					<dim>192</dim>
					<dim>33</dim>
					<dim>201</dim>
				</port>
				<port id="1" precision="FP32">
					<dim>64</dim>
					<dim>192</dim>
					<dim>2</dim>
					<dim>3</dim>
				</port>
			</input>
			<output>
				<port id="2" precision="FP32">
					<dim>1</dim>
					<dim>64</dim>
					<dim>33</dim>
					<dim>201</dim>
				</port>
			</output>
		</layer>
		<layer id="100" name="Reshape_445_compressed" type="Const" version="opset1">
			<data element_type="f16" shape="1, 64, 1, 1" offset="305060" size="128" />
			<output>
				<port id="0" precision="FP16">
					<dim>1</dim>
					<dim>64</dim>
					<dim>1</dim>
					<dim>1</dim>
				</port>
			</output>
		</layer>
		<layer id="101" name="Reshape_445" type="Convert" version="opset1">
			<data destination_type="f32" />
			<rt_info>
				<attribute name="decompression" version="0" />
			</rt_info>
			<input>
				<port id="0" precision="FP16">
					<dim>1</dim>
					<dim>64</dim>
					<dim>1</dim>
					<dim>1</dim>
				</port>
			</input>
			<output>
				<port id="1" precision="FP32">
					<dim>1</dim>
					<dim>64</dim>
					<dim>1</dim>
					<dim>1</dim>
				</port>
			</output>
		</layer>
		<layer id="102" name="/dense_encoder/dilated_dense/conv3/Conv" type="Add" version="opset1">
			<data auto_broadcast="numpy" />
			<input>
				<port id="0" precision="FP32">
					<dim>1</dim>
					<dim>64</dim>
					<dim>33</dim>
					<dim>201</dim>
				</port>
				<port id="1" precision="FP32">
					<dim>1</dim>
					<dim>64</dim>
					<dim>1</dim>
					<dim>1</dim>
				</port>
			</input>
			<output>
				<port id="2" precision="FP32" names="/dense_encoder/dilated_dense/conv3/Conv_output_0">
					<dim>1</dim>
					<dim>64</dim>
					<dim>33</dim>
					<dim>201</dim>
				</port>
			</output>
		</layer>
		<layer id="103" name="Constant_447_2" type="Const" version="opset1">
			<data element_type="i64" shape="2" offset="9748" size="16" />
			<output>
				<port id="0" precision="I64">
					<dim>2</dim>
				</port>
			</output>
		</layer>
		<layer id="104" name="MVN_448" type="MVN" version="opset6">
			<data eps="9.9999997473787516e-06" normalize_variance="true" eps_mode="INSIDE_SQRT" />
			<input>
				<port id="0" precision="FP32">
					<dim>1</dim>
					<dim>64</dim>
					<dim>33</dim>
					<dim>201</dim>
				</port>
				<port id="1" precision="I64">
					<dim>2</dim>
				</port>
			</input>
			<output>
				<port id="2" precision="FP32" names="/dense_encoder/dilated_dense/norm3/InstanceNormalization_output_0">
					<dim>1</dim>
					<dim>64</dim>
					<dim>33</dim>
					<dim>201</dim>
				</port>
			</output>
		</layer>
		<layer id="105" name="/dense_encoder/dilated_dense/prelu3/PRelu" type="PReLU" version="opset1">
			<input>
				<port id="0" precision="FP32">
					<dim>1</dim>
					<dim>64</dim>
					<dim>33</dim>
					<dim>201</dim>
				</port>
				<port id="1" precision="FP32">
					<dim>64</dim>
					<dim>1</dim>
					<dim>1</dim>
				</port>
			</input>
			<output>
				<port id="2" precision="FP32" names="/dense_encoder/dilated_dense/prelu3/PRelu_output_0">
					<dim>1</dim>
					<dim>64</dim>
					<dim>33</dim>
					<dim>201</dim>
				</port>
			</output>
		</layer>
		<layer id="106" name="/dense_encoder/dilated_dense/Concat_2" type="Concat" version="opset1">
			<data axis="1" />
			<input>
				<port id="0" precision="FP32">
					<dim>1</dim>
					<dim>64</dim>
					<dim>33</dim>
					<dim>201</dim>
				</port>
				<port id="1" precision="FP32">
					<dim>1</dim>
					<dim>192</dim>
					<dim>33</dim>
					<dim>201</dim>
				</port>
			</input>
			<output>
				<port id="2" precision="FP32" names="/dense_encoder/dilated_dense/Concat_2_output_0">
					<dim>1</dim>
					<dim>256</dim>
					<dim>33</dim>
					<dim>201</dim>
				</port>
			</output>
		</layer>
		<layer id="107" name="dense_encoder.dilated_dense.conv4.weight_compressed" type="Const" version="opset1">
			<data element_type="f16" shape="64, 256, 2, 3" offset="305188" size="196608" />
			<output>
				<port id="0" precision="FP16" names="dense_encoder.dilated_dense.conv4.weight">
					<dim>64</dim>
					<dim>256</dim>
					<dim>2</dim>
					<dim>3</dim>
				</port>
			</output>
		</layer>
		<layer id="108" name="dense_encoder.dilated_dense.conv4.weight" type="Convert" version="opset1">
			<data destination_type="f32" />
			<rt_info>
				<attribute name="decompression" version="0" />
			</rt_info>
			<input>
				<port id="0" precision="FP16">
					<dim>64</dim>
					<dim>256</dim>
					<dim>2</dim>
					<dim>3</dim>
				</port>
			</input>
			<output>
				<port id="1" precision="FP32">
					<dim>64</dim>
					<dim>256</dim>
					<dim>2</dim>
					<dim>3</dim>
				</port>
			</output>
		</layer>
		<layer id="109" name="/dense_encoder/dilated_dense/conv4/Conv/WithoutBiases" type="Convolution" version="opset1">
			<data strides="1, 1" dilations="8, 1" pads_begin="8, 1" pads_end="0, 1" auto_pad="explicit" />
			<input>
				<port id="0" precision="FP32">
					<dim>1</dim>
					<dim>256</dim>
					<dim>33</dim>
					<dim>201</dim>
				</port>
				<port id="1" precision="FP32">
					<dim>64</dim>
					<dim>256</dim>
					<dim>2</dim>
					<dim>3</dim>
				</port>
			</input>
			<output>
				<port id="2" precision="FP32">
					<dim>1</dim>
					<dim>64</dim>
					<dim>33</dim>
					<dim>201</dim>
				</port>
			</output>
		</layer>
		<layer id="110" name="Reshape_514_compressed" type="Const" version="opset1">
			<data element_type="f16" shape="1, 64, 1, 1" offset="501796" size="128" />
			<output>
				<port id="0" precision="FP16">
					<dim>1</dim>
					<dim>64</dim>
					<dim>1</dim>
					<dim>1</dim>
				</port>
			</output>
		</layer>
		<layer id="111" name="Reshape_514" type="Convert" version="opset1">
			<data destination_type="f32" />
			<rt_info>
				<attribute name="decompression" version="0" />
			</rt_info>
			<input>
				<port id="0" precision="FP16">
					<dim>1</dim>
					<dim>64</dim>
					<dim>1</dim>
					<dim>1</dim>
				</port>
			</input>
			<output>
				<port id="1" precision="FP32">
					<dim>1</dim>
					<dim>64</dim>
					<dim>1</dim>
					<dim>1</dim>
				</port>
			</output>
		</layer>
		<layer id="112" name="/dense_encoder/dilated_dense/conv4/Conv" type="Add" version="opset1">
			<data auto_broadcast="numpy" />
			<input>
				<port id="0" precision="FP32">
					<dim>1</dim>
					<dim>64</dim>
					<dim>33</dim>
					<dim>201</dim>
				</port>
				<port id="1" precision="FP32">
					<dim>1</dim>
					<dim>64</dim>
					<dim>1</dim>
					<dim>1</dim>
				</port>
			</input>
			<output>
				<port id="2" precision="FP32" names="/dense_encoder/dilated_dense/conv4/Conv_output_0">
					<dim>1</dim>
					<dim>64</dim>
					<dim>33</dim>
					<dim>201</dim>
				</port>
			</output>
		</layer>
		<layer id="113" name="Constant_516" type="Const" version="opset1">
			<data element_type="i64" shape="2" offset="9748" size="16" />
			<output>
				<port id="0" precision="I64">
					<dim>2</dim>
				</port>
			</output>
		</layer>
		<layer id="114" name="MVN_517" type="MVN" version="opset6">
			<data eps="9.9999997473787516e-06" normalize_variance="true" eps_mode="INSIDE_SQRT" />
			<input>
				<port id="0" precision="FP32">
					<dim>1</dim>
					<dim>64</dim>
					<dim>33</dim>
					<dim>201</dim>
				</port>
				<port id="1" precision="I64">
					<dim>2</dim>
				</port>
			</input>
			<output>
				<port id="2" precision="FP32" names="/dense_encoder/dilated_dense/norm4/InstanceNormalization_output_0">
					<dim>1</dim>
					<dim>64</dim>
					<dim>33</dim>
					<dim>201</dim>
				</port>
			</output>
		</layer>
		<layer id="115" name="/dense_encoder/dilated_dense/prelu4/PRelu" type="PReLU" version="opset1">
			<input>
				<port id="0" precision="FP32">
					<dim>1</dim>
					<dim>64</dim>
					<dim>33</dim>
					<dim>201</dim>
				</port>
				<port id="1" precision="FP32">
					<dim>64</dim>
					<dim>1</dim>
					<dim>1</dim>
				</port>
			</input>
			<output>
				<port id="2" precision="FP32" names="/dense_encoder/dilated_dense/prelu4/PRelu_output_0">
					<dim>1</dim>
					<dim>64</dim>
					<dim>33</dim>
					<dim>201</dim>
				</port>
			</output>
		</layer>
		<layer id="116" name="dense_encoder.conv_2.0.weight_compressed" type="Const" version="opset1">
			<data element_type="f16" shape="64, 64, 1, 3" offset="501924" size="24576" />
			<output>
				<port id="0" precision="FP16" names="dense_encoder.conv_2.0.weight">
					<dim>64</dim>
					<dim>64</dim>
					<dim>1</dim>
					<dim>3</dim>
				</port>
			</output>
		</layer>
		<layer id="117" name="dense_encoder.conv_2.0.weight" type="Convert" version="opset1">
			<data destination_type="f32" />
			<rt_info>
				<attribute name="decompression" version="0" />
			</rt_info>
			<input>
				<port id="0" precision="FP16">
					<dim>64</dim>
					<dim>64</dim>
					<dim>1</dim>
					<dim>3</dim>
				</port>
			</input>
			<output>
				<port id="1" precision="FP32">
					<dim>64</dim>
					<dim>64</dim>
					<dim>1</dim>
					<dim>3</dim>
				</port>
			</output>
		</layer>
		<layer id="118" name="/dense_encoder/conv_2/conv_2.0/Conv/WithoutBiases" type="Convolution" version="opset1">
			<data strides="1, 2" dilations="1, 1" pads_begin="0, 1" pads_end="0, 1" auto_pad="explicit" />
			<input>
				<port id="0" precision="FP32">
					<dim>1</dim>
					<dim>64</dim>
					<dim>33</dim>
					<dim>201</dim>
				</port>
				<port id="1" precision="FP32">
					<dim>64</dim>
					<dim>64</dim>
					<dim>1</dim>
					<dim>3</dim>
				</port>
			</input>
			<output>
				<port id="2" precision="FP32">
					<dim>1</dim>
					<dim>64</dim>
					<dim>33</dim>
					<dim>101</dim>
				</port>
			</output>
		</layer>
		<layer id="119" name="Reshape_552_compressed" type="Const" version="opset1">
			<data element_type="f16" shape="1, 64, 1, 1" offset="526500" size="128" />
			<output>
				<port id="0" precision="FP16">
					<dim>1</dim>
					<dim>64</dim>
					<dim>1</dim>
					<dim>1</dim>
				</port>
			</output>
		</layer>
		<layer id="120" name="Reshape_552" type="Convert" version="opset1">
			<data destination_type="f32" />
			<rt_info>
				<attribute name="decompression" version="0" />
			</rt_info>
			<input>
				<port id="0" precision="FP16">
					<dim>1</dim>
					<dim>64</dim>
					<dim>1</dim>
					<dim>1</dim>
				</port>
			</input>
			<output>
				<port id="1" precision="FP32">
					<dim>1</dim>
					<dim>64</dim>
					<dim>1</dim>
					<dim>1</dim>
				</port>
			</output>
		</layer>
		<layer id="121" name="/dense_encoder/conv_2/conv_2.0/Conv" type="Add" version="opset1">
			<data auto_broadcast="numpy" />
			<input>
				<port id="0" precision="FP32">
					<dim>1</dim>
					<dim>64</dim>
					<dim>33</dim>
					<dim>101</dim>
				</port>
				<port id="1" precision="FP32">
					<dim>1</dim>
					<dim>64</dim>
					<dim>1</dim>
					<dim>1</dim>
				</port>
			</input>
			<output>
				<port id="2" precision="FP32" names="/dense_encoder/conv_2/conv_2.0/Conv_output_0">
					<dim>1</dim>
					<dim>64</dim>
					<dim>33</dim>
					<dim>101</dim>
				</port>
			</output>
		</layer>
		<layer id="122" name="Constant_554" type="Const" version="opset1">
			<data element_type="i64" shape="2" offset="9748" size="16" />
			<output>
				<port id="0" precision="I64">
					<dim>2</dim>
				</port>
			</output>
		</layer>
		<layer id="123" name="MVN_555" type="MVN" version="opset6">
			<data eps="9.9999997473787516e-06" normalize_variance="true" eps_mode="INSIDE_SQRT" />
			<input>
				<port id="0" precision="FP32">
					<dim>1</dim>
					<dim>64</dim>
					<dim>33</dim>
					<dim>101</dim>
				</port>
				<port id="1" precision="I64">
					<dim>2</dim>
				</port>
			</input>
			<output>
				<port id="2" precision="FP32" names="/dense_encoder/conv_2/conv_2.1/InstanceNormalization_output_0">
					<dim>1</dim>
					<dim>64</dim>
					<dim>33</dim>
					<dim>101</dim>
				</port>
			</output>
		</layer>
		<layer id="124" name="/dense_encoder/conv_2/conv_2.2/PRelu" type="PReLU" version="opset1">
			<input>
				<port id="0" precision="FP32">
					<dim>1</dim>
					<dim>64</dim>
					<dim>33</dim>
					<dim>101</dim>
				</port>
				<port id="1" precision="FP32">
					<dim>64</dim>
					<dim>1</dim>
					<dim>1</dim>
				</port>
			</input>
			<output>
				<port id="2" precision="FP32" names="/dense_encoder/conv_2/conv_2.2/PRelu_output_0">
					<dim>1</dim>
					<dim>64</dim>
					<dim>33</dim>
					<dim>101</dim>
				</port>
			</output>
		</layer>
		<layer id="125" name="Constant_595" type="Const" version="opset1">
			<data element_type="i64" shape="4" offset="526628" size="32" />
			<output>
				<port id="0" precision="I64">
					<dim>4</dim>
				</port>
			</output>
		</layer>
		<layer id="126" name="/TSCB_1/Transpose" type="Transpose" version="opset1">
			<input>
				<port id="0" precision="FP32">
					<dim>1</dim>
					<dim>64</dim>
					<dim>33</dim>
					<dim>101</dim>
				</port>
				<port id="1" precision="I64">
					<dim>4</dim>
				</port>
			</input>
			<output>
				<port id="2" precision="FP32" names="/TSCB_1/Transpose_output_0">
					<dim>1</dim>
					<dim>101</dim>
					<dim>33</dim>
					<dim>64</dim>
				</port>
			</output>
		</layer>
		<layer id="127" name="/TSCB_1/Shape" type="ShapeOf" version="opset3">
			<data output_type="i64" />
			<input>
				<port id="0" precision="FP32">
					<dim>1</dim>
					<dim>64</dim>
					<dim>33</dim>
					<dim>101</dim>
				</port>
			</input>
			<output>
				<port id="1" precision="I64" names="/TSCB_1/Shape_1_output_0,/TSCB_1/Shape_2_output_0,/TSCB_1/Shape_3_output_0,/TSCB_1/Shape_output_0">
					<dim>4</dim>
				</port>
			</output>
		</layer>
		<layer id="128" name="Constant_40882" type="Const" version="opset1">
			<data element_type="i64" shape="1" offset="9216" size="8" />
			<rt_info>
				<attribute name="precise" version="0" />
			</rt_info>
			<output>
				<port id="0" precision="I64">
					<dim>1</dim>
				</port>
			</output>
		</layer>
		<layer id="129" name="Constant_581" type="Const" version="opset1">
			<data element_type="i64" shape="" offset="9216" size="8" />
			<rt_info>
				<attribute name="precise" version="0" />
			</rt_info>
			<output>
				<port id="0" precision="I64" />
			</output>
		</layer>
		<layer id="130" name="/TSCB_1/Gather" type="Gather" version="opset8">
			<data batch_dims="0" />
			<input>
				<port id="0" precision="I64">
					<dim>4</dim>
				</port>
				<port id="1" precision="I64">
					<dim>1</dim>
				</port>
				<port id="2" precision="I64" />
			</input>
			<output>
				<port id="3" precision="I64" names="/TSCB_1/Gather_output_0,/TSCB_1/Unsqueeze_10_output_0,/TSCB_1/Unsqueeze_3_output_0">
					<dim>1</dim>
				</port>
			</output>
		</layer>
		<layer id="131" name="Constant_40885" type="Const" version="opset1">
			<data element_type="i64" shape="1" offset="526660" size="8" />
			<rt_info>
				<attribute name="precise" version="0" />
			</rt_info>
			<output>
				<port id="0" precision="I64">
					<dim>1</dim>
				</port>
			</output>
		</layer>
		<layer id="132" name="Constant_593" type="Const" version="opset1">
			<data element_type="i64" shape="" offset="9216" size="8" />
			<rt_info>
				<attribute name="precise" version="0" />
			</rt_info>
			<output>
				<port id="0" precision="I64" />
			</output>
		</layer>
		<layer id="133" name="/TSCB_1/Gather_3" type="Gather" version="opset8">
			<data batch_dims="0" />
			<input>
				<port id="0" precision="I64">
					<dim>4</dim>
				</port>
				<port id="1" precision="I64">
					<dim>1</dim>
				</port>
				<port id="2" precision="I64" />
			</input>
			<output>
				<port id="3" precision="I64" names="/TSCB_1/Gather_3_output_0,/TSCB_1/Unsqueeze_12_output_0,/TSCB_1/Unsqueeze_4_output_0,/TSCB_1/Unsqueeze_8_output_0">
					<dim>1</dim>
				</port>
			</output>
		</layer>
		<layer id="134" name="/TSCB_1/Mul" type="Multiply" version="opset1">
			<data auto_broadcast="numpy" />
			<input>
				<port id="0" precision="I64">
					<dim>1</dim>
				</port>
				<port id="1" precision="I64">
					<dim>1</dim>
				</port>
			</input>
			<output>
				<port id="2" precision="I64" names="/TSCB_1/Mul_output_0,/TSCB_1/Unsqueeze_output_0">
					<dim>1</dim>
				</port>
			</output>
		</layer>
		<layer id="135" name="Constant_41067" type="Const" version="opset1">
			<data element_type="i64" shape="2" offset="526668" size="16" />
			<rt_info>
				<attribute name="precise" version="0" />
			</rt_info>
			<output>
				<port id="0" precision="I64">
					<dim>2</dim>
				</port>
			</output>
		</layer>
		<layer id="136" name="Constant_41068" type="Const" version="opset1">
			<data element_type="i64" shape="" offset="9216" size="8" />
			<rt_info>
				<attribute name="precise" version="0" />
			</rt_info>
			<output>
				<port id="0" precision="I64" />
			</output>
		</layer>
		<layer id="137" name="Gather_41069" type="Gather" version="opset8">
			<data batch_dims="0" />
			<input>
				<port id="0" precision="I64">
					<dim>4</dim>
				</port>
				<port id="1" precision="I64">
					<dim>2</dim>
				</port>
				<port id="2" precision="I64" />
			</input>
			<output>
				<port id="3" precision="I64">
					<dim>2</dim>
				</port>
			</output>
		</layer>
		<layer id="138" name="/TSCB_1/Concat" type="Concat" version="opset1">
			<data axis="0" />
			<input>
				<port id="0" precision="I64">
					<dim>1</dim>
				</port>
				<port id="1" precision="I64">
					<dim>2</dim>
				</port>
			</input>
			<output>
				<port id="2" precision="I64" names="/TSCB_1/Concat_output_0">
					<dim>3</dim>
				</port>
			</output>
		</layer>
		<layer id="139" name="/TSCB_1/Reshape" type="Reshape" version="opset1">
			<data special_zero="true" />
			<input>
				<port id="0" precision="FP32">
					<dim>1</dim>
					<dim>101</dim>
					<dim>33</dim>
					<dim>64</dim>
				</port>
				<port id="1" precision="I64">
					<dim>3</dim>
				</port>
			</input>
			<output>
				<port id="2" precision="FP32" names="/TSCB_1/Reshape_output_0">
					<dim>101</dim>
					<dim>33</dim>
					<dim>64</dim>
				</port>
			</output>
		</layer>
		<layer id="140" name="Func_/TSCB_1/time_conformer/ff1/fn/norm/LayerNormalizationXShape" type="ShapeOf" version="opset3">
			<data output_type="i64" />
			<input>
				<port id="0" precision="FP32">
					<dim>101</dim>
					<dim>33</dim>
					<dim>64</dim>
				</port>
			</input>
			<output>
				<port id="1" precision="I64" names="Func_/TSCB_1/time_conformer/ff1/fn/norm/LayerNormalizationXShape">
					<dim>3</dim>
				</port>
			</output>
		</layer>
		<layer id="141" name="Constant_632_2" type="Const" version="opset1">
			<data element_type="i64" shape="1" offset="9216" size="8" />
			<rt_info>
				<attribute name="precise" version="0" />
			</rt_info>
			<output>
				<port id="0" precision="I64">
					<dim>1</dim>
				</port>
			</output>
		</layer>
		<layer id="142" name="Constant_631" type="Const" version="opset1">
			<data element_type="i64" shape="1" offset="526684" size="8" />
			<rt_info>
				<attribute name="precise" version="0" />
			</rt_info>
			<output>
				<port id="0" precision="I64">
					<dim>1</dim>
				</port>
			</output>
		</layer>
		<layer id="143" name="Constant_633" type="Const" version="opset1">
			<data element_type="i64" shape="1" offset="9224" size="8" />
			<rt_info>
				<attribute name="precise" version="0" />
			</rt_info>
			<output>
				<port id="0" precision="I64">
					<dim>1</dim>
				</port>
			</output>
		</layer>
		<layer id="144" name="StridedSlice_634" type="StridedSlice" version="opset1">
			<data begin_mask="0" end_mask="0" new_axis_mask="" shrink_axis_mask="" ellipsis_mask="" />
			<input>
				<port id="0" precision="I64">
					<dim>3</dim>
				</port>
				<port id="1" precision="I64">
					<dim>1</dim>
				</port>
				<port id="2" precision="I64">
					<dim>1</dim>
				</port>
				<port id="3" precision="I64">
					<dim>1</dim>
				</port>
			</input>
			<output>
				<port id="4" precision="I64">
					<dim>2</dim>
				</port>
			</output>
		</layer>
		<layer id="145" name="Constant_635" type="Const" version="opset1">
			<data element_type="i64" shape="" offset="9216" size="8" />
			<rt_info>
				<attribute name="precise" version="0" />
			</rt_info>
			<output>
				<port id="0" precision="I64" />
			</output>
		</layer>
		<layer id="146" name="ReduceProd_636" type="ReduceProd" version="opset1">
			<data keep_dims="true" />
			<input>
				<port id="0" precision="I64">
					<dim>2</dim>
				</port>
				<port id="1" precision="I64" />
			</input>
			<output>
				<port id="2" precision="I64">
					<dim>1</dim>
				</port>
			</output>
		</layer>
		<layer id="147" name="Constant_637" type="Const" version="opset1">
			<data element_type="i64" shape="1" offset="526692" size="8" />
			<rt_info>
				<attribute name="precise" version="0" />
			</rt_info>
			<output>
				<port id="0" precision="I64">
					<dim>1</dim>
				</port>
			</output>
		</layer>
		<layer id="148" name="Concat_638" type="Concat" version="opset1">
			<data axis="0" />
			<input>
				<port id="0" precision="I64">
					<dim>1</dim>
				</port>
				<port id="1" precision="I64">
					<dim>1</dim>
				</port>
			</input>
			<output>
				<port id="2" precision="I64">
					<dim>2</dim>
				</port>
			</output>
		</layer>
		<layer id="149" name="Func_/TSCB_1/time_conformer/ff1/fn/norm/LayerNormalizationX2D" type="Reshape" version="opset1">
			<data special_zero="true" />
			<input>
				<port id="0" precision="FP32">
					<dim>101</dim>
					<dim>33</dim>
					<dim>64</dim>
				</port>
				<port id="1" precision="I64">
					<dim>2</dim>
				</port>
			</input>
			<output>
				<port id="2" precision="FP32" names="Func_/TSCB_1/time_conformer/ff1/fn/norm/LayerNormalizationX2D,Func_/TSCB_1/time_conformer/ff1/fn/norm/LayerNormalizationXU">
					<dim>3333</dim>
					<dim>64</dim>
				</port>
			</output>
		</layer>
		<layer id="150" name="Constant_676" type="Const" version="opset1">
			<data element_type="i64" shape="1" offset="9224" size="8" />
			<output>
				<port id="0" precision="I64">
					<dim>1</dim>
				</port>
			</output>
		</layer>
		<layer id="151" name="Func_/TSCB_1/time_conformer/ff1/fn/norm/LayerNormalizationMean2D" type="ReduceMean" version="opset1">
			<data keep_dims="true" />
			<input>
				<port id="0" precision="FP32">
					<dim>3333</dim>
					<dim>64</dim>
				</port>
				<port id="1" precision="I64">
					<dim>1</dim>
				</port>
			</input>
			<output>
				<port id="2" precision="FP32" names="Func_/TSCB_1/time_conformer/ff1/fn/norm/LayerNormalizationMean2D">
					<dim>3333</dim>
					<dim>1</dim>
				</port>
			</output>
		</layer>
		<layer id="152" name="Func_/TSCB_1/time_conformer/ff1/fn/norm/LayerNormalizationDeviation" type="Subtract" version="opset1">
			<data auto_broadcast="numpy" />
			<input>
				<port id="0" precision="FP32">
					<dim>3333</dim>
					<dim>64</dim>
				</port>
				<port id="1" precision="FP32">
					<dim>3333</dim>
					<dim>1</dim>
				</port>
			</input>
			<output>
				<port id="2" precision="FP32" names="Func_/TSCB_1/time_conformer/ff1/fn/norm/LayerNormalizationDeviation">
					<dim>3333</dim>
					<dim>64</dim>
				</port>
			</output>
		</layer>
		<layer id="153" name="Func_/TSCB_1/time_conformer/ff1/fn/norm/LayerNormalizationSquare" type="Multiply" version="opset1">
			<data auto_broadcast="numpy" />
			<input>
				<port id="0" precision="FP32">
					<dim>3333</dim>
					<dim>64</dim>
				</port>
				<port id="1" precision="FP32">
					<dim>3333</dim>
					<dim>64</dim>
				</port>
			</input>
			<output>
				<port id="2" precision="FP32" names="Func_/TSCB_1/time_conformer/ff1/fn/norm/LayerNormalizationSquare">
					<dim>3333</dim>
					<dim>64</dim>
				</port>
			</output>
		</layer>
		<layer id="154" name="Constant_679" type="Const" version="opset1">
			<data element_type="i64" shape="1" offset="9224" size="8" />
			<output>
				<port id="0" precision="I64">
					<dim>1</dim>
				</port>
			</output>
		</layer>
		<layer id="155" name="Func_/TSCB_1/time_conformer/ff1/fn/norm/LayerNormalizationMeanOfSquare" type="ReduceMean" version="opset1">
			<data keep_dims="true" />
			<input>
				<port id="0" precision="FP32">
					<dim>3333</dim>
					<dim>64</dim>
				</port>
				<port id="1" precision="I64">
					<dim>1</dim>
				</port>
			</input>
			<output>
				<port id="2" precision="FP32" names="Func_/TSCB_1/time_conformer/ff1/fn/norm/LayerNormalizationMeanOfSquare">
					<dim>3333</dim>
					<dim>1</dim>
				</port>
			</output>
		</layer>
		<layer id="156" name="Func_/TSCB_1/time_conformer/ff1/fn/norm/LayerNormalizationSquareOfMean" type="Multiply" version="opset1">
			<data auto_broadcast="numpy" />
			<input>
				<port id="0" precision="FP32">
					<dim>3333</dim>
					<dim>1</dim>
				</port>
				<port id="1" precision="FP32">
					<dim>3333</dim>
					<dim>1</dim>
				</port>
			</input>
			<output>
				<port id="2" precision="FP32" names="Func_/TSCB_1/time_conformer/ff1/fn/norm/LayerNormalizationSquareOfMean">
					<dim>3333</dim>
					<dim>1</dim>
				</port>
			</output>
		</layer>
		<layer id="157" name="Func_/TSCB_1/time_conformer/ff1/fn/norm/LayerNormalizationVar" type="Subtract" version="opset1">
			<data auto_broadcast="numpy" />
			<input>
				<port id="0" precision="FP32">
					<dim>3333</dim>
					<dim>1</dim>
				</port>
				<port id="1" precision="FP32">
					<dim>3333</dim>
					<dim>1</dim>
				</port>
			</input>
			<output>
				<port id="2" precision="FP32" names="Func_/TSCB_1/time_conformer/ff1/fn/norm/LayerNormalizationVar">
					<dim>3333</dim>
					<dim>1</dim>
				</port>
			</output>
		</layer>
		<layer id="158" name="Constant_60610_compressed" type="Const" version="opset1">
			<data element_type="f16" shape="1, 1" offset="526700" size="2" />
			<output>
				<port id="0" precision="FP16">
					<dim>1</dim>
					<dim>1</dim>
				</port>
			</output>
		</layer>
		<layer id="159" name="Constant_60610" type="Convert" version="opset1">
			<data destination_type="f32" />
			<rt_info>
				<attribute name="decompression" version="0" />
			</rt_info>
			<input>
				<port id="0" precision="FP16">
					<dim>1</dim>
					<dim>1</dim>
				</port>
			</input>
			<output>
				<port id="1" precision="FP32">
					<dim>1</dim>
					<dim>1</dim>
				</port>
			</output>
		</layer>
		<layer id="160" name="Func_/TSCB_1/time_conformer/ff1/fn/norm/LayerNormalizationVarPlusEpsilon" type="Add" version="opset1">
			<data auto_broadcast="numpy" />
			<input>
				<port id="0" precision="FP32">
					<dim>3333</dim>
					<dim>1</dim>
				</port>
				<port id="1" precision="FP32">
					<dim>1</dim>
					<dim>1</dim>
				</port>
			</input>
			<output>
				<port id="2" precision="FP32" names="Func_/TSCB_1/time_conformer/ff1/fn/norm/LayerNormalizationVarPlusEpsilon">
					<dim>3333</dim>
					<dim>1</dim>
				</port>
			</output>
		</layer>
		<layer id="161" name="Func_/TSCB_1/time_conformer/ff1/fn/norm/LayerNormalizationStdDev" type="Sqrt" version="opset1">
			<input>
				<port id="0" precision="FP32">
					<dim>3333</dim>
					<dim>1</dim>
				</port>
			</input>
			<output>
				<port id="1" precision="FP32" names="Func_/TSCB_1/time_conformer/ff1/fn/norm/LayerNormalizationStdDev">
					<dim>3333</dim>
					<dim>1</dim>
				</port>
			</output>
		</layer>
		<layer id="162" name="Func_/TSCB_1/time_conformer/ff1/fn/norm/LayerNormalizationNormalized" type="Divide" version="opset1">
			<data auto_broadcast="numpy" m_pythondiv="true" />
			<input>
				<port id="0" precision="FP32">
					<dim>3333</dim>
					<dim>64</dim>
				</port>
				<port id="1" precision="FP32">
					<dim>3333</dim>
					<dim>1</dim>
				</port>
			</input>
			<output>
				<port id="2" precision="FP32" names="Func_/TSCB_1/time_conformer/ff1/fn/norm/LayerNormalizationNormalized,Func_/TSCB_1/time_conformer/ff1/fn/norm/LayerNormalizationNormalizedT">
					<dim>3333</dim>
					<dim>64</dim>
				</port>
			</output>
		</layer>
		<layer id="163" name="Func_/TSCB_1/time_conformer/ff1/fn/norm/LayerNormalizationScale2D_compressed" type="Const" version="opset1">
			<data element_type="f16" shape="1, 64" offset="526702" size="128" />
			<output>
				<port id="0" precision="FP16" names="Func_/TSCB_1/time_conformer/ff1/fn/norm/LayerNormalizationScale2D">
					<dim>1</dim>
					<dim>64</dim>
				</port>
			</output>
		</layer>
		<layer id="164" name="Func_/TSCB_1/time_conformer/ff1/fn/norm/LayerNormalizationScale2D" type="Convert" version="opset1">
			<data destination_type="f32" />
			<rt_info>
				<attribute name="decompression" version="0" />
			</rt_info>
			<input>
				<port id="0" precision="FP16">
					<dim>1</dim>
					<dim>64</dim>
				</port>
			</input>
			<output>
				<port id="1" precision="FP32">
					<dim>1</dim>
					<dim>64</dim>
				</port>
			</output>
		</layer>
		<layer id="165" name="Func_/TSCB_1/time_conformer/ff1/fn/norm/LayerNormalizationScaled" type="Multiply" version="opset1">
			<data auto_broadcast="numpy" />
			<input>
				<port id="0" precision="FP32">
					<dim>3333</dim>
					<dim>64</dim>
				</port>
				<port id="1" precision="FP32">
					<dim>1</dim>
					<dim>64</dim>
				</port>
			</input>
			<output>
				<port id="2" precision="FP32" names="Func_/TSCB_1/time_conformer/ff1/fn/norm/LayerNormalizationBiased,Func_/TSCB_1/time_conformer/ff1/fn/norm/LayerNormalizationScaled">
					<dim>3333</dim>
					<dim>64</dim>
				</port>
			</output>
		</layer>
		<layer id="166" name="/TSCB_1/time_conformer/ff1/fn/norm/LayerNormalization_output_0" type="Reshape" version="opset1">
			<data special_zero="true" />
			<input>
				<port id="0" precision="FP32">
					<dim>3333</dim>
					<dim>64</dim>
				</port>
				<port id="1" precision="I64">
					<dim>3</dim>
				</port>
			</input>
			<output>
				<port id="2" precision="FP32" names="/TSCB_1/time_conformer/ff1/fn/norm/LayerNormalization_output_0">
					<dim>101</dim>
					<dim>33</dim>
					<dim>64</dim>
				</port>
			</output>
		</layer>
		<layer id="167" name="Transpose_59247_compressed" type="Const" version="opset1">
			<data element_type="f16" shape="256, 64" offset="526830" size="32768" />
			<output>
				<port id="0" precision="FP16">
					<dim>256</dim>
					<dim>64</dim>
				</port>
			</output>
		</layer>
		<layer id="168" name="Transpose_59247" type="Convert" version="opset1">
			<data destination_type="f32" />
			<rt_info>
				<attribute name="decompression" version="0" />
			</rt_info>
			<input>
				<port id="0" precision="FP16">
					<dim>256</dim>
					<dim>64</dim>
				</port>
			</input>
			<output>
				<port id="1" precision="FP32">
					<dim>256</dim>
					<dim>64</dim>
				</port>
			</output>
		</layer>
		<layer id="169" name="/TSCB_1/time_conformer/ff1/fn/fn/net/net.0/MatMul" type="MatMul" version="opset1">
			<data transpose_a="false" transpose_b="true" />
			<input>
				<port id="0" precision="FP32">
					<dim>101</dim>
					<dim>33</dim>
					<dim>64</dim>
				</port>
				<port id="1" precision="FP32">
					<dim>256</dim>
					<dim>64</dim>
				</port>
			</input>
			<output>
				<port id="2" precision="FP32" names="/TSCB_1/time_conformer/ff1/fn/fn/net/net.0/MatMul_output_0">
					<dim>101</dim>
					<dim>33</dim>
					<dim>256</dim>
				</port>
			</output>
		</layer>
		<layer id="170" name="/TSCB_1/time_conformer/ff1/fn/fn/net/net.0/Add" type="Add" version="opset1">
			<data auto_broadcast="numpy" />
			<input>
				<port id="0" precision="FP32">
					<dim>1</dim>
					<dim>1</dim>
					<dim>256</dim>
				</port>
				<port id="1" precision="FP32">
					<dim>101</dim>
					<dim>33</dim>
					<dim>256</dim>
				</port>
			</input>
			<output>
				<port id="2" precision="FP32" names="/TSCB_1/time_conformer/ff1/fn/fn/net/net.0/Add_output_0">
					<dim>101</dim>
					<dim>33</dim>
					<dim>256</dim>
				</port>
			</output>
		</layer>
		<layer id="171" name="/TSCB_1/time_conformer/ff1/fn/fn/net/net.1/Mul" type="Swish" version="opset4">
			<input>
				<port id="0" precision="FP32">
					<dim>101</dim>
					<dim>33</dim>
					<dim>256</dim>
				</port>
			</input>
			<output>
				<port id="1" precision="FP32" names="/TSCB_1/time_conformer/ff1/fn/fn/net/net.1/Mul_output_0">
					<dim>101</dim>
					<dim>33</dim>
					<dim>256</dim>
				</port>
			</output>
		</layer>
		<layer id="172" name="Multiply_59528_compressed" type="Const" version="opset1">
			<data element_type="f16" shape="64, 256" offset="559598" size="32768" />
			<output>
				<port id="0" precision="FP16">
					<dim>64</dim>
					<dim>256</dim>
				</port>
			</output>
		</layer>
		<layer id="173" name="Multiply_59528" type="Convert" version="opset1">
			<data destination_type="f32" />
			<rt_info>
				<attribute name="decompression" version="0" />
			</rt_info>
			<input>
				<port id="0" precision="FP16">
					<dim>64</dim>
					<dim>256</dim>
				</port>
			</input>
			<output>
				<port id="1" precision="FP32">
					<dim>64</dim>
					<dim>256</dim>
				</port>
			</output>
		</layer>
		<layer id="174" name="Multiply_59464" type="MatMul" version="opset1">
			<data transpose_a="false" transpose_b="true" />
			<input>
				<port id="0" precision="FP32">
					<dim>101</dim>
					<dim>33</dim>
					<dim>256</dim>
				</port>
				<port id="1" precision="FP32">
					<dim>64</dim>
					<dim>256</dim>
				</port>
			</input>
			<output>
				<port id="2" precision="FP32">
					<dim>101</dim>
					<dim>33</dim>
					<dim>64</dim>
				</port>
			</output>
		</layer>
		<layer id="175" name="Constant_60612_compressed" type="Const" version="opset1">
			<data element_type="f16" shape="1, 1, 64" offset="592366" size="128" />
			<output>
				<port id="0" precision="FP16">
					<dim>1</dim>
					<dim>1</dim>
					<dim>64</dim>
				</port>
			</output>
		</layer>
		<layer id="176" name="Constant_60612" type="Convert" version="opset1">
			<data destination_type="f32" />
			<rt_info>
				<attribute name="decompression" version="0" />
			</rt_info>
			<input>
				<port id="0" precision="FP16">
					<dim>1</dim>
					<dim>1</dim>
					<dim>64</dim>
				</port>
			</input>
			<output>
				<port id="1" precision="FP32">
					<dim>1</dim>
					<dim>1</dim>
					<dim>64</dim>
				</port>
			</output>
		</layer>
		<layer id="177" name="/TSCB_1/time_conformer/ff1/Mul" type="Add" version="opset1">
			<data auto_broadcast="numpy" />
			<input>
				<port id="0" precision="FP32">
					<dim>101</dim>
					<dim>33</dim>
					<dim>64</dim>
				</port>
				<port id="1" precision="FP32">
					<dim>1</dim>
					<dim>1</dim>
					<dim>64</dim>
				</port>
			</input>
			<output>
				<port id="2" precision="FP32" names="/TSCB_1/time_conformer/ff1/Mul_output_0">
					<dim>101</dim>
					<dim>33</dim>
					<dim>64</dim>
				</port>
			</output>
		</layer>
		<layer id="178" name="/TSCB_1/time_conformer/Add" type="Add" version="opset1">
			<data auto_broadcast="numpy" />
			<input>
				<port id="0" precision="FP32">
					<dim>101</dim>
					<dim>33</dim>
					<dim>64</dim>
				</port>
				<port id="1" precision="FP32">
					<dim>101</dim>
					<dim>33</dim>
					<dim>64</dim>
				</port>
			</input>
			<output>
				<port id="2" precision="FP32" names="/TSCB_1/time_conformer/Add_output_0">
					<dim>101</dim>
					<dim>33</dim>
					<dim>64</dim>
				</port>
			</output>
		</layer>
		<layer id="179" name="Func_/TSCB_1/time_conformer/attn/norm/LayerNormalizationXShape" type="ShapeOf" version="opset3">
			<data output_type="i64" />
			<input>
				<port id="0" precision="FP32">
					<dim>101</dim>
					<dim>33</dim>
					<dim>64</dim>
				</port>
			</input>
			<output>
				<port id="1" precision="I64" names="Func_/TSCB_1/time_conformer/attn/norm/LayerNormalizationXShape">
					<dim>3</dim>
				</port>
			</output>
		</layer>
		<layer id="180" name="Constant_732" type="Const" version="opset1">
			<data element_type="i64" shape="1" offset="9216" size="8" />
			<rt_info>
				<attribute name="precise" version="0" />
			</rt_info>
			<output>
				<port id="0" precision="I64">
					<dim>1</dim>
				</port>
			</output>
		</layer>
		<layer id="181" name="Constant_731" type="Const" version="opset1">
			<data element_type="i64" shape="1" offset="526684" size="8" />
			<rt_info>
				<attribute name="precise" version="0" />
			</rt_info>
			<output>
				<port id="0" precision="I64">
					<dim>1</dim>
				</port>
			</output>
		</layer>
		<layer id="182" name="Constant_733" type="Const" version="opset1">
			<data element_type="i64" shape="1" offset="9224" size="8" />
			<rt_info>
				<attribute name="precise" version="0" />
			</rt_info>
			<output>
				<port id="0" precision="I64">
					<dim>1</dim>
				</port>
			</output>
		</layer>
		<layer id="183" name="StridedSlice_734" type="StridedSlice" version="opset1">
			<data begin_mask="0" end_mask="0" new_axis_mask="" shrink_axis_mask="" ellipsis_mask="" />
			<input>
				<port id="0" precision="I64">
					<dim>3</dim>
				</port>
				<port id="1" precision="I64">
					<dim>1</dim>
				</port>
				<port id="2" precision="I64">
					<dim>1</dim>
				</port>
				<port id="3" precision="I64">
					<dim>1</dim>
				</port>
			</input>
			<output>
				<port id="4" precision="I64">
					<dim>2</dim>
				</port>
			</output>
		</layer>
		<layer id="184" name="Constant_735" type="Const" version="opset1">
			<data element_type="i64" shape="" offset="9216" size="8" />
			<rt_info>
				<attribute name="precise" version="0" />
			</rt_info>
			<output>
				<port id="0" precision="I64" />
			</output>
		</layer>
		<layer id="185" name="ReduceProd_736" type="ReduceProd" version="opset1">
			<data keep_dims="true" />
			<input>
				<port id="0" precision="I64">
					<dim>2</dim>
				</port>
				<port id="1" precision="I64" />
			</input>
			<output>
				<port id="2" precision="I64">
					<dim>1</dim>
				</port>
			</output>
		</layer>
		<layer id="186" name="Constant_737" type="Const" version="opset1">
			<data element_type="i64" shape="1" offset="526692" size="8" />
			<rt_info>
				<attribute name="precise" version="0" />
			</rt_info>
			<output>
				<port id="0" precision="I64">
					<dim>1</dim>
				</port>
			</output>
		</layer>
		<layer id="187" name="Concat_738" type="Concat" version="opset1">
			<data axis="0" />
			<input>
				<port id="0" precision="I64">
					<dim>1</dim>
				</port>
				<port id="1" precision="I64">
					<dim>1</dim>
				</port>
			</input>
			<output>
				<port id="2" precision="I64">
					<dim>2</dim>
				</port>
			</output>
		</layer>
		<layer id="188" name="Func_/TSCB_1/time_conformer/attn/norm/LayerNormalizationX2D" type="Reshape" version="opset1">
			<data special_zero="true" />
			<input>
				<port id="0" precision="FP32">
					<dim>101</dim>
					<dim>33</dim>
					<dim>64</dim>
				</port>
				<port id="1" precision="I64">
					<dim>2</dim>
				</port>
			</input>
			<output>
				<port id="2" precision="FP32" names="Func_/TSCB_1/time_conformer/attn/norm/LayerNormalizationX2D,Func_/TSCB_1/time_conformer/attn/norm/LayerNormalizationXU">
					<dim>3333</dim>
					<dim>64</dim>
				</port>
			</output>
		</layer>
		<layer id="189" name="Constant_776" type="Const" version="opset1">
			<data element_type="i64" shape="1" offset="9224" size="8" />
			<output>
				<port id="0" precision="I64">
					<dim>1</dim>
				</port>
			</output>
		</layer>
		<layer id="190" name="Func_/TSCB_1/time_conformer/attn/norm/LayerNormalizationMean2D" type="ReduceMean" version="opset1">
			<data keep_dims="true" />
			<input>
				<port id="0" precision="FP32">
					<dim>3333</dim>
					<dim>64</dim>
				</port>
				<port id="1" precision="I64">
					<dim>1</dim>
				</port>
			</input>
			<output>
				<port id="2" precision="FP32" names="Func_/TSCB_1/time_conformer/attn/norm/LayerNormalizationMean2D">
					<dim>3333</dim>
					<dim>1</dim>
				</port>
			</output>
		</layer>
		<layer id="191" name="Func_/TSCB_1/time_conformer/attn/norm/LayerNormalizationDeviation" type="Subtract" version="opset1">
			<data auto_broadcast="numpy" />
			<input>
				<port id="0" precision="FP32">
					<dim>3333</dim>
					<dim>64</dim>
				</port>
				<port id="1" precision="FP32">
					<dim>3333</dim>
					<dim>1</dim>
				</port>
			</input>
			<output>
				<port id="2" precision="FP32" names="Func_/TSCB_1/time_conformer/attn/norm/LayerNormalizationDeviation">
					<dim>3333</dim>
					<dim>64</dim>
				</port>
			</output>
		</layer>
		<layer id="192" name="Func_/TSCB_1/time_conformer/attn/norm/LayerNormalizationSquare" type="Multiply" version="opset1">
			<data auto_broadcast="numpy" />
			<input>
				<port id="0" precision="FP32">
					<dim>3333</dim>
					<dim>64</dim>
				</port>
				<port id="1" precision="FP32">
					<dim>3333</dim>
					<dim>64</dim>
				</port>
			</input>
			<output>
				<port id="2" precision="FP32" names="Func_/TSCB_1/time_conformer/attn/norm/LayerNormalizationSquare">
					<dim>3333</dim>
					<dim>64</dim>
				</port>
			</output>
		</layer>
		<layer id="193" name="Constant_779" type="Const" version="opset1">
			<data element_type="i64" shape="1" offset="9224" size="8" />
			<output>
				<port id="0" precision="I64">
					<dim>1</dim>
				</port>
			</output>
		</layer>
		<layer id="194" name="Func_/TSCB_1/time_conformer/attn/norm/LayerNormalizationMeanOfSquare" type="ReduceMean" version="opset1">
			<data keep_dims="true" />
			<input>
				<port id="0" precision="FP32">
					<dim>3333</dim>
					<dim>64</dim>
				</port>
				<port id="1" precision="I64">
					<dim>1</dim>
				</port>
			</input>
			<output>
				<port id="2" precision="FP32" names="Func_/TSCB_1/time_conformer/attn/norm/LayerNormalizationMeanOfSquare">
					<dim>3333</dim>
					<dim>1</dim>
				</port>
			</output>
		</layer>
		<layer id="195" name="Func_/TSCB_1/time_conformer/attn/norm/LayerNormalizationSquareOfMean" type="Multiply" version="opset1">
			<data auto_broadcast="numpy" />
			<input>
				<port id="0" precision="FP32">
					<dim>3333</dim>
					<dim>1</dim>
				</port>
				<port id="1" precision="FP32">
					<dim>3333</dim>
					<dim>1</dim>
				</port>
			</input>
			<output>
				<port id="2" precision="FP32" names="Func_/TSCB_1/time_conformer/attn/norm/LayerNormalizationSquareOfMean">
					<dim>3333</dim>
					<dim>1</dim>
				</port>
			</output>
		</layer>
		<layer id="196" name="Func_/TSCB_1/time_conformer/attn/norm/LayerNormalizationVar" type="Subtract" version="opset1">
			<data auto_broadcast="numpy" />
			<input>
				<port id="0" precision="FP32">
					<dim>3333</dim>
					<dim>1</dim>
				</port>
				<port id="1" precision="FP32">
					<dim>3333</dim>
					<dim>1</dim>
				</port>
			</input>
			<output>
				<port id="2" precision="FP32" names="Func_/TSCB_1/time_conformer/attn/norm/LayerNormalizationVar">
					<dim>3333</dim>
					<dim>1</dim>
				</port>
			</output>
		</layer>
		<layer id="197" name="Constant_60613_compressed" type="Const" version="opset1">
			<data element_type="f16" shape="1, 1" offset="592494" size="2" />
			<output>
				<port id="0" precision="FP16">
					<dim>1</dim>
					<dim>1</dim>
				</port>
			</output>
		</layer>
		<layer id="198" name="Constant_60613" type="Convert" version="opset1">
			<data destination_type="f32" />
			<rt_info>
				<attribute name="decompression" version="0" />
			</rt_info>
			<input>
				<port id="0" precision="FP16">
					<dim>1</dim>
					<dim>1</dim>
				</port>
			</input>
			<output>
				<port id="1" precision="FP32">
					<dim>1</dim>
					<dim>1</dim>
				</port>
			</output>
		</layer>
		<layer id="199" name="Func_/TSCB_1/time_conformer/attn/norm/LayerNormalizationVarPlusEpsilon" type="Add" version="opset1">
			<data auto_broadcast="numpy" />
			<input>
				<port id="0" precision="FP32">
					<dim>3333</dim>
					<dim>1</dim>
				</port>
				<port id="1" precision="FP32">
					<dim>1</dim>
					<dim>1</dim>
				</port>
			</input>
			<output>
				<port id="2" precision="FP32" names="Func_/TSCB_1/time_conformer/attn/norm/LayerNormalizationVarPlusEpsilon">
					<dim>3333</dim>
					<dim>1</dim>
				</port>
			</output>
		</layer>
		<layer id="200" name="Func_/TSCB_1/time_conformer/attn/norm/LayerNormalizationStdDev" type="Sqrt" version="opset1">
			<input>
				<port id="0" precision="FP32">
					<dim>3333</dim>
					<dim>1</dim>
				</port>
			</input>
			<output>
				<port id="1" precision="FP32" names="Func_/TSCB_1/time_conformer/attn/norm/LayerNormalizationStdDev">
					<dim>3333</dim>
					<dim>1</dim>
				</port>
			</output>
		</layer>
		<layer id="201" name="Func_/TSCB_1/time_conformer/attn/norm/LayerNormalizationNormalized" type="Divide" version="opset1">
			<data auto_broadcast="numpy" m_pythondiv="true" />
			<input>
				<port id="0" precision="FP32">
					<dim>3333</dim>
					<dim>64</dim>
				</port>
				<port id="1" precision="FP32">
					<dim>3333</dim>
					<dim>1</dim>
				</port>
			</input>
			<output>
				<port id="2" precision="FP32" names="Func_/TSCB_1/time_conformer/attn/norm/LayerNormalizationNormalized,Func_/TSCB_1/time_conformer/attn/norm/LayerNormalizationNormalizedT">
					<dim>3333</dim>
					<dim>64</dim>
				</port>
			</output>
		</layer>
		<layer id="202" name="Func_/TSCB_1/time_conformer/attn/norm/LayerNormalizationScale2D_compressed" type="Const" version="opset1">
			<data element_type="f16" shape="1, 64" offset="592496" size="128" />
			<output>
				<port id="0" precision="FP16" names="Func_/TSCB_1/time_conformer/attn/norm/LayerNormalizationScale2D">
					<dim>1</dim>
					<dim>64</dim>
				</port>
			</output>
		</layer>
		<layer id="203" name="Func_/TSCB_1/time_conformer/attn/norm/LayerNormalizationScale2D" type="Convert" version="opset1">
			<data destination_type="f32" />
			<rt_info>
				<attribute name="decompression" version="0" />
			</rt_info>
			<input>
				<port id="0" precision="FP16">
					<dim>1</dim>
					<dim>64</dim>
				</port>
			</input>
			<output>
				<port id="1" precision="FP32">
					<dim>1</dim>
					<dim>64</dim>
				</port>
			</output>
		</layer>
		<layer id="204" name="Func_/TSCB_1/time_conformer/attn/norm/LayerNormalizationScaled" type="Multiply" version="opset1">
			<data auto_broadcast="numpy" />
			<input>
				<port id="0" precision="FP32">
					<dim>3333</dim>
					<dim>64</dim>
				</port>
				<port id="1" precision="FP32">
					<dim>1</dim>
					<dim>64</dim>
				</port>
			</input>
			<output>
				<port id="2" precision="FP32" names="Func_/TSCB_1/time_conformer/attn/norm/LayerNormalizationBiased,Func_/TSCB_1/time_conformer/attn/norm/LayerNormalizationScaled">
					<dim>3333</dim>
					<dim>64</dim>
				</port>
			</output>
		</layer>
		<layer id="205" name="/TSCB_1/time_conformer/attn/norm/LayerNormalization_output_0" type="Reshape" version="opset1">
			<data special_zero="true" />
			<input>
				<port id="0" precision="FP32">
					<dim>3333</dim>
					<dim>64</dim>
				</port>
				<port id="1" precision="I64">
					<dim>3</dim>
				</port>
			</input>
			<output>
				<port id="2" precision="FP32" names="/TSCB_1/time_conformer/attn/norm/LayerNormalization_output_0">
					<dim>101</dim>
					<dim>33</dim>
					<dim>64</dim>
				</port>
			</output>
		</layer>
		<layer id="206" name="Transpose_59254_compressed" type="Const" version="opset1">
			<data element_type="f16" shape="64, 64" offset="592624" size="8192" />
			<output>
				<port id="0" precision="FP16">
					<dim>64</dim>
					<dim>64</dim>
				</port>
			</output>
		</layer>
		<layer id="207" name="Transpose_59254" type="Convert" version="opset1">
			<data destination_type="f32" />
			<rt_info>
				<attribute name="decompression" version="0" />
			</rt_info>
			<input>
				<port id="0" precision="FP16">
					<dim>64</dim>
					<dim>64</dim>
				</port>
			</input>
			<output>
				<port id="1" precision="FP32">
					<dim>64</dim>
					<dim>64</dim>
				</port>
			</output>
		</layer>
		<layer id="208" name="/TSCB_1/time_conformer/attn/fn/to_q/MatMul" type="MatMul" version="opset1">
			<data transpose_a="false" transpose_b="true" />
			<input>
				<port id="0" precision="FP32">
					<dim>101</dim>
					<dim>33</dim>
					<dim>64</dim>
				</port>
				<port id="1" precision="FP32">
					<dim>64</dim>
					<dim>64</dim>
				</port>
			</input>
			<output>
				<port id="2" precision="FP32" names="/TSCB_1/time_conformer/attn/fn/to_q/MatMul_output_0">
					<dim>101</dim>
					<dim>33</dim>
					<dim>64</dim>
				</port>
			</output>
		</layer>
		<layer id="209" name="Constant_45556" type="Const" version="opset1">
			<data element_type="i64" shape="1" offset="9216" size="8" />
			<rt_info>
				<attribute name="precise" version="0" />
			</rt_info>
			<output>
				<port id="0" precision="I64">
					<dim>1</dim>
				</port>
			</output>
		</layer>
		<layer id="210" name="/TSCB_1/time_conformer/attn/fn/Shape_1" type="ShapeOf" version="opset3">
			<data output_type="i64" />
			<input>
				<port id="0" precision="FP32">
					<dim>101</dim>
					<dim>33</dim>
					<dim>64</dim>
				</port>
			</input>
			<output>
				<port id="1" precision="I64" names="/TSCB_1/time_conformer/attn/fn/Shape_1_output_0,/TSCB_1/time_conformer/attn/fn/Shape_2_output_0,/TSCB_1/time_conformer/attn/fn/Shape_3_output_0">
					<dim>3</dim>
				</port>
			</output>
		</layer>
		<layer id="211" name="/TSCB_1/time_conformer/attn/fn/Constant_7" type="Const" version="opset1">
			<data element_type="i64" shape="" offset="9224" size="8" />
			<rt_info>
				<attribute name="precise" version="0" />
			</rt_info>
			<output>
				<port id="0" precision="I64" names="/TSCB_1/time_conformer/attn/fn/Constant_7_output_0" />
			</output>
		</layer>
		<layer id="212" name="Constant_908_2" type="Const" version="opset1">
			<data element_type="i64" shape="" offset="9216" size="8" />
			<rt_info>
				<attribute name="precise" version="0" />
			</rt_info>
			<output>
				<port id="0" precision="I64" />
			</output>
		</layer>
		<layer id="213" name="/TSCB_1/time_conformer/attn/fn/Gather_2" type="Gather" version="opset8">
			<data batch_dims="0" />
			<input>
				<port id="0" precision="I64">
					<dim>3</dim>
				</port>
				<port id="1" precision="I64" />
				<port id="2" precision="I64" />
			</input>
			<output>
				<port id="3" precision="I64" names="/TSCB_1/time_conformer/attn/fn/Cast_2_output_0,/TSCB_1/time_conformer/attn/fn/Gather_2_output_0" />
			</output>
		</layer>
		<layer id="214" name="Constant_302" type="Const" version="opset1">
			<data element_type="i64" shape="1" offset="9216" size="8" />
			<rt_info>
				<attribute name="precise" version="0" />
			</rt_info>
			<output>
				<port id="0" precision="I64" names="onnx::Unsqueeze_588">
					<dim>1</dim>
				</port>
			</output>
		</layer>
		<layer id="215" name="/TSCB_1/time_conformer/attn/fn/Unsqueeze_1" type="Unsqueeze" version="opset1">
			<input>
				<port id="0" precision="I64" />
				<port id="1" precision="I64">
					<dim>1</dim>
				</port>
			</input>
			<output>
				<port id="2" precision="I64" names="/TSCB_1/time_conformer/attn/fn/Unsqueeze_1_output_0,/TSCB_1/time_conformer/attn/fn/Unsqueeze_4_output_0,/TSCB_1/time_conformer/attn/fn/Unsqueeze_7_output_0">
					<dim>1</dim>
				</port>
			</output>
		</layer>
		<layer id="216" name="/TSCB_1/time_conformer/attn/fn/Constant_10" type="Const" version="opset1">
			<data element_type="i64" shape="1" offset="600816" size="8" />
			<rt_info>
				<attribute name="precise" version="0" />
			</rt_info>
			<output>
				<port id="0" precision="I64" names="/TSCB_1/time_conformer/attn/fn/Constant_10_output_0">
					<dim>1</dim>
				</port>
			</output>
		</layer>
		<layer id="217" name="/TSCB_1/time_conformer/attn/fn/Constant_8" type="Const" version="opset1">
			<data element_type="i64" shape="" offset="526684" size="8" />
			<rt_info>
				<attribute name="precise" version="0" />
			</rt_info>
			<output>
				<port id="0" precision="I64" names="/TSCB_1/time_conformer/attn/fn/Constant_8_output_0" />
			</output>
		</layer>
		<layer id="218" name="Constant_912" type="Const" version="opset1">
			<data element_type="i64" shape="" offset="9216" size="8" />
			<rt_info>
				<attribute name="precise" version="0" />
			</rt_info>
			<output>
				<port id="0" precision="I64" />
			</output>
		</layer>
		<layer id="219" name="/TSCB_1/time_conformer/attn/fn/Gather_3" type="Gather" version="opset8">
			<data batch_dims="0" />
			<input>
				<port id="0" precision="I64">
					<dim>3</dim>
				</port>
				<port id="1" precision="I64" />
				<port id="2" precision="I64" />
			</input>
			<output>
				<port id="3" precision="I64" names="/TSCB_1/time_conformer/attn/fn/Gather_3_output_0" />
			</output>
		</layer>
		<layer id="220" name="/TSCB_1/time_conformer/attn/fn/Constant_9" type="Const" version="opset1">
			<data element_type="i64" shape="" offset="600816" size="8" />
			<rt_info>
				<attribute name="precise" version="0" />
			</rt_info>
			<output>
				<port id="0" precision="I64" names="/TSCB_1/time_conformer/attn/fn/Constant_9_output_0" />
			</output>
		</layer>
		<layer id="221" name="/TSCB_1/time_conformer/attn/fn/Div_1" type="Divide" version="opset1">
			<data auto_broadcast="numpy" m_pythondiv="true" />
			<input>
				<port id="0" precision="I64" />
				<port id="1" precision="I64" />
			</input>
			<output>
				<port id="2" precision="I64" names="/TSCB_1/time_conformer/attn/fn/Cast_1_output_0,/TSCB_1/time_conformer/attn/fn/Cast_output_0,/TSCB_1/time_conformer/attn/fn/Div_1_output_0" />
			</output>
		</layer>
		<layer id="222" name="Constant_305" type="Const" version="opset1">
			<data element_type="i64" shape="1" offset="9216" size="8" />
			<rt_info>
				<attribute name="precise" version="0" />
			</rt_info>
			<output>
				<port id="0" precision="I64" names="onnx::Unsqueeze_592">
					<dim>1</dim>
				</port>
			</output>
		</layer>
		<layer id="223" name="/TSCB_1/time_conformer/attn/fn/Unsqueeze_2" type="Unsqueeze" version="opset1">
			<input>
				<port id="0" precision="I64" />
				<port id="1" precision="I64">
					<dim>1</dim>
				</port>
			</input>
			<output>
				<port id="2" precision="I64" names="/TSCB_1/time_conformer/attn/fn/Unsqueeze_2_output_0,/TSCB_1/time_conformer/attn/fn/Unsqueeze_5_output_0,/TSCB_1/time_conformer/attn/fn/Unsqueeze_8_output_0">
					<dim>1</dim>
				</port>
			</output>
		</layer>
		<layer id="224" name="/TSCB_1/time_conformer/attn/fn/Concat" type="Concat" version="opset1">
			<data axis="0" />
			<input>
				<port id="0" precision="I64">
					<dim>1</dim>
				</port>
				<port id="1" precision="I64">
					<dim>1</dim>
				</port>
				<port id="2" precision="I64">
					<dim>1</dim>
				</port>
				<port id="3" precision="I64">
					<dim>1</dim>
				</port>
			</input>
			<output>
				<port id="4" precision="I64">
					<dim>4</dim>
				</port>
			</output>
		</layer>
		<layer id="225" name="/TSCB_1/time_conformer/attn/fn/Reshape" type="Reshape" version="opset1">
			<data special_zero="true" />
			<input>
				<port id="0" precision="FP32">
					<dim>101</dim>
					<dim>33</dim>
					<dim>64</dim>
				</port>
				<port id="1" precision="I64">
					<dim>4</dim>
				</port>
			</input>
			<output>
				<port id="2" precision="FP32" names="/TSCB_1/time_conformer/attn/fn/Reshape_output_0">
					<dim>101</dim>
					<dim>33</dim>
					<dim>4</dim>
					<dim>16</dim>
				</port>
			</output>
		</layer>
		<layer id="226" name="Constant_997" type="Const" version="opset1">
			<data element_type="i64" shape="4" offset="600824" size="32" />
			<output>
				<port id="0" precision="I64">
					<dim>4</dim>
				</port>
			</output>
		</layer>
		<layer id="227" name="/TSCB_1/time_conformer/attn/fn/Transpose" type="Transpose" version="opset1">
			<input>
				<port id="0" precision="FP32">
					<dim>101</dim>
					<dim>33</dim>
					<dim>4</dim>
					<dim>16</dim>
				</port>
				<port id="1" precision="I64">
					<dim>4</dim>
				</port>
			</input>
			<output>
				<port id="2" precision="FP32" names="/TSCB_1/time_conformer/attn/fn/Transpose_output_0">
					<dim>101</dim>
					<dim>4</dim>
					<dim>33</dim>
					<dim>16</dim>
				</port>
			</output>
		</layer>
		<layer id="228" name="Transpose_59257_compressed" type="Const" version="opset1">
			<data element_type="f16" shape="128, 64" offset="600856" size="16384" />
			<output>
				<port id="0" precision="FP16">
					<dim>128</dim>
					<dim>64</dim>
				</port>
			</output>
		</layer>
		<layer id="229" name="Transpose_59257" type="Convert" version="opset1">
			<data destination_type="f32" />
			<rt_info>
				<attribute name="decompression" version="0" />
			</rt_info>
			<input>
				<port id="0" precision="FP16">
					<dim>128</dim>
					<dim>64</dim>
				</port>
			</input>
			<output>
				<port id="1" precision="FP32">
					<dim>128</dim>
					<dim>64</dim>
				</port>
			</output>
		</layer>
		<layer id="230" name="/TSCB_1/time_conformer/attn/fn/to_kv/MatMul" type="MatMul" version="opset1">
			<data transpose_a="false" transpose_b="true" />
			<input>
				<port id="0" precision="FP32">
					<dim>101</dim>
					<dim>33</dim>
					<dim>64</dim>
				</port>
				<port id="1" precision="FP32">
					<dim>128</dim>
					<dim>64</dim>
				</port>
			</input>
			<output>
				<port id="2" precision="FP32" names="/TSCB_1/time_conformer/attn/fn/to_kv/MatMul_output_0">
					<dim>101</dim>
					<dim>33</dim>
					<dim>128</dim>
				</port>
			</output>
		</layer>
		<layer id="231" name="Constant_50651" type="Const" version="opset1">
			<data element_type="i64" shape="3" offset="617240" size="24" />
			<rt_info>
				<attribute name="precise" version="0" />
			</rt_info>
			<output>
				<port id="0" precision="I64">
					<dim>3</dim>
				</port>
			</output>
		</layer>
		<layer id="232" name="Constant_50652" type="Const" version="opset1">
			<data element_type="i64" shape="3" offset="617240" size="24" />
			<rt_info>
				<attribute name="precise" version="0" />
			</rt_info>
			<output>
				<port id="0" precision="I64">
					<dim>3</dim>
				</port>
			</output>
		</layer>
		<layer id="233" name="Constant_50648" type="Const" version="opset1">
			<data element_type="i64" shape="1" offset="526684" size="8" />
			<rt_info>
				<attribute name="precise" version="0" />
			</rt_info>
			<output>
				<port id="0" precision="I64">
					<dim>1</dim>
				</port>
			</output>
		</layer>
		<layer id="234" name="/TSCB_1/time_conformer/attn/fn/Shape" type="ShapeOf" version="opset3">
			<data output_type="i64" />
			<input>
				<port id="0" precision="FP32">
					<dim>101</dim>
					<dim>33</dim>
					<dim>128</dim>
				</port>
			</input>
			<output>
				<port id="1" precision="I64" names="/TSCB_1/time_conformer/attn/fn/Shape_output_0">
					<dim>3</dim>
				</port>
			</output>
		</layer>
		<layer id="235" name="/TSCB_1/time_conformer/attn/fn/Constant" type="Const" version="opset1">
			<data element_type="i64" shape="1" offset="526692" size="8" />
			<rt_info>
				<attribute name="precise" version="0" />
			</rt_info>
			<output>
				<port id="0" precision="I64" names="/TSCB_1/time_conformer/attn/fn/Constant_output_0">
					<dim>1</dim>
				</port>
			</output>
		</layer>
		<layer id="236" name="Constant_801" type="Const" version="opset1">
			<data element_type="i64" shape="" offset="9216" size="8" />
			<rt_info>
				<attribute name="precise" version="0" />
			</rt_info>
			<output>
				<port id="0" precision="I64" />
			</output>
		</layer>
		<layer id="237" name="/TSCB_1/time_conformer/attn/fn/Gather" type="Gather" version="opset8">
			<data batch_dims="0" />
			<input>
				<port id="0" precision="I64">
					<dim>3</dim>
				</port>
				<port id="1" precision="I64">
					<dim>1</dim>
				</port>
				<port id="2" precision="I64" />
			</input>
			<output>
				<port id="3" precision="I64" names="/TSCB_1/time_conformer/attn/fn/Gather_output_0">
					<dim>1</dim>
				</port>
			</output>
		</layer>
		<layer id="238" name="/TSCB_1/time_conformer/attn/fn/Constant_2" type="Const" version="opset1">
			<data element_type="i64" shape="1" offset="9224" size="8" />
			<rt_info>
				<attribute name="precise" version="0" />
			</rt_info>
			<output>
				<port id="0" precision="I64" names="/TSCB_1/time_conformer/attn/fn/Constant_2_output_0">
					<dim>1</dim>
				</port>
			</output>
		</layer>
		<layer id="239" name="/TSCB_1/time_conformer/attn/fn/Add" type="Add" version="opset1">
			<data auto_broadcast="numpy" />
			<input>
				<port id="0" precision="I64">
					<dim>1</dim>
				</port>
				<port id="1" precision="I64">
					<dim>1</dim>
				</port>
			</input>
			<output>
				<port id="2" precision="I64" names="/TSCB_1/time_conformer/attn/fn/Add_output_0">
					<dim>1</dim>
				</port>
			</output>
		</layer>
		<layer id="240" name="/TSCB_1/time_conformer/attn/fn/Constant_3" type="Const" version="opset1">
			<data element_type="i64" shape="1" offset="526684" size="8" />
			<rt_info>
				<attribute name="precise" version="0" />
			</rt_info>
			<output>
				<port id="0" precision="I64" names="/TSCB_1/time_conformer/attn/fn/Constant_3_output_0">
					<dim>1</dim>
				</port>
			</output>
		</layer>
		<layer id="241" name="/TSCB_1/time_conformer/attn/fn/Div" type="Divide" version="opset1">
			<data auto_broadcast="numpy" m_pythondiv="true" />
			<input>
				<port id="0" precision="I64">
					<dim>1</dim>
				</port>
				<port id="1" precision="I64">
					<dim>1</dim>
				</port>
			</input>
			<output>
				<port id="2" precision="I64" names="/TSCB_1/time_conformer/attn/fn/Div_output_0,/TSCB_1/time_conformer/attn/fn/Mul_output_0">
					<dim>1</dim>
				</port>
			</output>
		</layer>
		<layer id="242" name="Constant_50647" type="Const" version="opset1">
			<data element_type="i32" shape="1" offset="617264" size="4" />
			<rt_info>
				<attribute name="precise" version="0" />
			</rt_info>
			<output>
				<port id="0" precision="I32">
					<dim>1</dim>
				</port>
			</output>
		</layer>
		<layer id="243" name="ScatterUpdate_50653" type="ScatterUpdate" version="opset3">
			<input>
				<port id="0" precision="I64">
					<dim>3</dim>
				</port>
				<port id="1" precision="I64">
					<dim>1</dim>
				</port>
				<port id="2" precision="I64">
					<dim>1</dim>
				</port>
				<port id="3" precision="I32">
					<dim>1</dim>
				</port>
			</input>
			<output>
				<port id="4" precision="I64">
					<dim>3</dim>
				</port>
			</output>
		</layer>
		<layer id="244" name="Constant_50656" type="Const" version="opset1">
			<data element_type="i64" shape="3" offset="617268" size="24" />
			<rt_info>
				<attribute name="precise" version="0" />
			</rt_info>
			<output>
				<port id="0" precision="I64">
					<dim>3</dim>
				</port>
			</output>
		</layer>
		<layer id="245" name="/TSCB_1/time_conformer/attn/fn/Slice" type="StridedSlice" version="opset1">
			<data begin_mask="1, 1, 0" end_mask="1, 1, 0" new_axis_mask="" shrink_axis_mask="" ellipsis_mask="" />
			<input>
				<port id="0" precision="FP32">
					<dim>101</dim>
					<dim>33</dim>
					<dim>128</dim>
				</port>
				<port id="1" precision="I64">
					<dim>3</dim>
				</port>
				<port id="2" precision="I64">
					<dim>3</dim>
				</port>
				<port id="3" precision="I64">
					<dim>3</dim>
				</port>
			</input>
			<output>
				<port id="4" precision="FP32" names="/TSCB_1/time_conformer/attn/fn/Slice_output_0">
					<dim>101</dim>
					<dim>33</dim>
					<dim>64</dim>
				</port>
			</output>
		</layer>
		<layer id="246" name="Constant_40894" type="Const" version="opset1">
			<data element_type="i64" shape="1" offset="9216" size="8" />
			<rt_info>
				<attribute name="precise" version="0" />
			</rt_info>
			<output>
				<port id="0" precision="I64">
					<dim>1</dim>
				</port>
			</output>
		</layer>
		<layer id="247" name="Constant_904" type="Const" version="opset1">
			<data element_type="i64" shape="" offset="9216" size="8" />
			<rt_info>
				<attribute name="precise" version="0" />
			</rt_info>
			<output>
				<port id="0" precision="I64" />
			</output>
		</layer>
		<layer id="248" name="/TSCB_1/time_conformer/attn/fn/Gather_1" type="Gather" version="opset8">
			<data batch_dims="0" />
			<input>
				<port id="0" precision="I64">
					<dim>3</dim>
				</port>
				<port id="1" precision="I64">
					<dim>1</dim>
				</port>
				<port id="2" precision="I64" />
			</input>
			<output>
				<port id="3" precision="I64" names="/TSCB_1/time_conformer/attn/fn/Gather_1_output_0,/TSCB_1/time_conformer/attn/fn/Unsqueeze_3_output_0,/TSCB_1/time_conformer/attn/fn/Unsqueeze_6_output_0,/TSCB_1/time_conformer/attn/fn/Unsqueeze_output_0">
					<dim>1</dim>
				</port>
			</output>
		</layer>
		<layer id="249" name="/TSCB_1/time_conformer/attn/fn/Concat0" type="Concat" version="opset1">
			<data axis="0" />
			<input>
				<port id="0" precision="I64">
					<dim>1</dim>
				</port>
				<port id="1" precision="I64">
					<dim>1</dim>
				</port>
				<port id="2" precision="I64">
					<dim>1</dim>
				</port>
				<port id="3" precision="I64">
					<dim>1</dim>
				</port>
			</input>
			<output>
				<port id="4" precision="I64" names="/TSCB_1/time_conformer/attn/fn/Concat_1_output_0,/TSCB_1/time_conformer/attn/fn/Concat_2_output_0,/TSCB_1/time_conformer/attn/fn/Concat_output_0">
					<dim>4</dim>
				</port>
			</output>
		</layer>
		<layer id="250" name="/TSCB_1/time_conformer/attn/fn/Reshape_1" type="Reshape" version="opset1">
			<data special_zero="true" />
			<input>
				<port id="0" precision="FP32">
					<dim>101</dim>
					<dim>33</dim>
					<dim>64</dim>
				</port>
				<port id="1" precision="I64">
					<dim>4</dim>
				</port>
			</input>
			<output>
				<port id="2" precision="FP32" names="/TSCB_1/time_conformer/attn/fn/Reshape_1_output_0">
					<dim>101</dim>
					<dim>33</dim>
					<dim>4</dim>
					<dim>16</dim>
				</port>
			</output>
		</layer>
		<layer id="251" name="Constant_1054_2" type="Const" version="opset1">
			<data element_type="i64" shape="4" offset="600824" size="32" />
			<output>
				<port id="0" precision="I64">
					<dim>4</dim>
				</port>
			</output>
		</layer>
		<layer id="252" name="/TSCB_1/time_conformer/attn/fn/Transpose_1" type="Transpose" version="opset1">
			<input>
				<port id="0" precision="FP32">
					<dim>101</dim>
					<dim>33</dim>
					<dim>4</dim>
					<dim>16</dim>
				</port>
				<port id="1" precision="I64">
					<dim>4</dim>
				</port>
			</input>
			<output>
				<port id="2" precision="FP32" names="/TSCB_1/time_conformer/attn/fn/Transpose_1_output_0">
					<dim>101</dim>
					<dim>4</dim>
					<dim>33</dim>
					<dim>16</dim>
				</port>
			</output>
		</layer>
		<layer id="253" name="/TSCB_1/time_conformer/attn/fn/Einsum" type="Einsum" version="opset7">
			<data equation="bhid,bhjd->bhij" />
			<input>
				<port id="0" precision="FP32">
					<dim>101</dim>
					<dim>4</dim>
					<dim>33</dim>
					<dim>16</dim>
				</port>
				<port id="1" precision="FP32">
					<dim>101</dim>
					<dim>4</dim>
					<dim>33</dim>
					<dim>16</dim>
				</port>
			</input>
			<output>
				<port id="2" precision="FP32" names="/TSCB_1/time_conformer/attn/fn/Einsum_output_0">
					<dim>101</dim>
					<dim>4</dim>
					<dim>33</dim>
					<dim>33</dim>
				</port>
			</output>
		</layer>
		<layer id="254" name="Constant_60614_compressed" type="Const" version="opset1">
			<data element_type="f16" shape="1, 1, 1, 1" offset="617292" size="2" />
			<output>
				<port id="0" precision="FP16">
					<dim>1</dim>
					<dim>1</dim>
					<dim>1</dim>
					<dim>1</dim>
				</port>
			</output>
		</layer>
		<layer id="255" name="Constant_60614" type="Convert" version="opset1">
			<data destination_type="f32" />
			<rt_info>
				<attribute name="decompression" version="0" />
			</rt_info>
			<input>
				<port id="0" precision="FP16">
					<dim>1</dim>
					<dim>1</dim>
					<dim>1</dim>
					<dim>1</dim>
				</port>
			</input>
			<output>
				<port id="1" precision="FP32">
					<dim>1</dim>
					<dim>1</dim>
					<dim>1</dim>
					<dim>1</dim>
				</port>
			</output>
		</layer>
		<layer id="256" name="/TSCB_1/time_conformer/attn/fn/Mul_2" type="Multiply" version="opset1">
			<data auto_broadcast="numpy" />
			<input>
				<port id="0" precision="FP32">
					<dim>101</dim>
					<dim>4</dim>
					<dim>33</dim>
					<dim>33</dim>
				</port>
				<port id="1" precision="FP32">
					<dim>1</dim>
					<dim>1</dim>
					<dim>1</dim>
					<dim>1</dim>
				</port>
			</input>
			<output>
				<port id="2" precision="FP32" names="/TSCB_1/time_conformer/attn/fn/Mul_2_output_0">
					<dim>101</dim>
					<dim>4</dim>
					<dim>33</dim>
					<dim>33</dim>
				</port>
			</output>
		</layer>
		<layer id="257" name="TSCB_1.time_conformer.attn.fn.rel_pos_emb.weight_compressed" type="Const" version="opset1">
			<data element_type="f16" shape="1025, 16" offset="617294" size="32800" />
			<output>
				<port id="0" precision="FP16" names="TSCB_1.time_conformer.attn.fn.rel_pos_emb.weight">
					<dim>1025</dim>
					<dim>16</dim>
				</port>
			</output>
		</layer>
		<layer id="258" name="TSCB_1.time_conformer.attn.fn.rel_pos_emb.weight" type="Convert" version="opset1">
			<data destination_type="f32" />
			<rt_info>
				<attribute name="decompression" version="0" />
			</rt_info>
			<input>
				<port id="0" precision="FP16">
					<dim>1025</dim>
					<dim>16</dim>
				</port>
			</input>
			<output>
				<port id="1" precision="FP32">
					<dim>1025</dim>
					<dim>16</dim>
				</port>
			</output>
		</layer>
		<layer id="259" name="/TSCB_1/time_conformer/attn/fn/Constant_14" type="Const" version="opset1">
			<data element_type="i64" shape="" offset="9216" size="8" />
			<output>
				<port id="0" precision="I64" names="/TSCB_1/time_conformer/attn/fn/Constant_14_output_0" />
			</output>
		</layer>
		<layer id="260" name="/TSCB_1/time_conformer/attn/fn/Constant_15" type="Const" version="opset1">
			<data element_type="i64" shape="" offset="9224" size="8" />
			<output>
				<port id="0" precision="I64" names="/TSCB_1/time_conformer/attn/fn/Constant_15_output_0" />
			</output>
		</layer>
		<layer id="261" name="/TSCB_1/time_conformer/attn/fn/Range" type="Range" version="opset4">
			<data output_type="i64" />
			<input>
				<port id="0" precision="I64" />
				<port id="1" precision="I64" />
				<port id="2" precision="I64" />
			</input>
			<output>
				<port id="3" precision="I64" names="/TSCB_1/time_conformer/attn/fn/Range_output_0">
					<dim>33</dim>
				</port>
			</output>
		</layer>
		<layer id="262" name="/TSCB_1/time_conformer/attn/fn/Constant_16" type="Const" version="opset1">
			<data element_type="i64" shape="1" offset="526692" size="8" />
			<output>
				<port id="0" precision="I64" names="/TSCB_1/time_conformer/attn/fn/Constant_16_output_0">
					<dim>1</dim>
				</port>
			</output>
		</layer>
		<layer id="263" name="/TSCB_1/time_conformer/attn/fn/Unsqueeze_9" type="Unsqueeze" version="opset1">
			<input>
				<port id="0" precision="I64">
					<dim>33</dim>
				</port>
				<port id="1" precision="I64">
					<dim>1</dim>
				</port>
			</input>
			<output>
				<port id="2" precision="I64" names="/TSCB_1/time_conformer/attn/fn/Unsqueeze_9_output_0">
					<dim>33</dim>
					<dim>1</dim>
				</port>
			</output>
		</layer>
		<layer id="264" name="/TSCB_1/time_conformer/attn/fn/Constant_17" type="Const" version="opset1">
			<data element_type="i64" shape="1" offset="9216" size="8" />
			<output>
				<port id="0" precision="I64" names="/TSCB_1/time_conformer/attn/fn/Constant_17_output_0">
					<dim>1</dim>
				</port>
			</output>
		</layer>
		<layer id="265" name="/TSCB_1/time_conformer/attn/fn/Unsqueeze_10" type="Unsqueeze" version="opset1">
			<input>
				<port id="0" precision="I64">
					<dim>33</dim>
				</port>
				<port id="1" precision="I64">
					<dim>1</dim>
				</port>
			</input>
			<output>
				<port id="2" precision="I64" names="/TSCB_1/time_conformer/attn/fn/Unsqueeze_10_output_0">
					<dim>1</dim>
					<dim>33</dim>
				</port>
			</output>
		</layer>
		<layer id="266" name="/TSCB_1/time_conformer/attn/fn/Sub" type="Subtract" version="opset1">
			<data auto_broadcast="numpy" />
			<input>
				<port id="0" precision="I64">
					<dim>33</dim>
					<dim>1</dim>
				</port>
				<port id="1" precision="I64">
					<dim>1</dim>
					<dim>33</dim>
				</port>
			</input>
			<output>
				<port id="2" precision="I64" names="/TSCB_1/time_conformer/attn/fn/Sub_output_0">
					<dim>33</dim>
					<dim>33</dim>
				</port>
			</output>
		</layer>
		<layer id="267" name="/TSCB_1/time_conformer/attn/fn/Clip" type="Clamp" version="opset1">
			<data min="-512" max="512" />
			<input>
				<port id="0" precision="I64">
					<dim>33</dim>
					<dim>33</dim>
				</port>
			</input>
			<output>
				<port id="1" precision="I64" names="/TSCB_1/time_conformer/attn/fn/Clip_output_0">
					<dim>33</dim>
					<dim>33</dim>
				</port>
			</output>
		</layer>
		<layer id="268" name="Constant_60615" type="Const" version="opset1">
			<data element_type="i64" shape="1, 1" offset="650094" size="8" />
			<output>
				<port id="0" precision="I64">
					<dim>1</dim>
					<dim>1</dim>
				</port>
			</output>
		</layer>
		<layer id="269" name="/TSCB_1/time_conformer/attn/fn/Add_1" type="Add" version="opset1">
			<data auto_broadcast="numpy" />
			<input>
				<port id="0" precision="I64">
					<dim>33</dim>
					<dim>33</dim>
				</port>
				<port id="1" precision="I64">
					<dim>1</dim>
					<dim>1</dim>
				</port>
			</input>
			<output>
				<port id="2" precision="I64" names="/TSCB_1/time_conformer/attn/fn/Add_1_output_0">
					<dim>33</dim>
					<dim>33</dim>
				</port>
			</output>
		</layer>
		<layer id="270" name="Constant_1140" type="Const" version="opset1">
			<data element_type="i64" shape="" offset="9216" size="8" />
			<output>
				<port id="0" precision="I64" />
			</output>
		</layer>
		<layer id="271" name="/TSCB_1/time_conformer/attn/fn/rel_pos_emb/Gather" type="Gather" version="opset8">
			<data batch_dims="0" />
			<input>
				<port id="0" precision="FP32">
					<dim>1025</dim>
					<dim>16</dim>
				</port>
				<port id="1" precision="I64">
					<dim>33</dim>
					<dim>33</dim>
				</port>
				<port id="2" precision="I64" />
			</input>
			<output>
				<port id="3" precision="FP32" names="/TSCB_1/time_conformer/attn/fn/Cast_3_output_0,/TSCB_1/time_conformer/attn/fn/rel_pos_emb/Gather_output_0">
					<dim>33</dim>
					<dim>33</dim>
					<dim>16</dim>
				</port>
			</output>
		</layer>
		<layer id="272" name="/TSCB_1/time_conformer/attn/fn/Einsum_1" type="Einsum" version="opset7">
			<data equation="bhnd,nrd->bhnr" />
			<input>
				<port id="0" precision="FP32">
					<dim>101</dim>
					<dim>4</dim>
					<dim>33</dim>
					<dim>16</dim>
				</port>
				<port id="1" precision="FP32">
					<dim>33</dim>
					<dim>33</dim>
					<dim>16</dim>
				</port>
			</input>
			<output>
				<port id="2" precision="FP32" names="/TSCB_1/time_conformer/attn/fn/Einsum_1_output_0">
					<dim>101</dim>
					<dim>4</dim>
					<dim>33</dim>
					<dim>33</dim>
				</port>
			</output>
		</layer>
		<layer id="273" name="Constant_60616_compressed" type="Const" version="opset1">
			<data element_type="f16" shape="1, 1, 1, 1" offset="650102" size="2" />
			<output>
				<port id="0" precision="FP16">
					<dim>1</dim>
					<dim>1</dim>
					<dim>1</dim>
					<dim>1</dim>
				</port>
			</output>
		</layer>
		<layer id="274" name="Constant_60616" type="Convert" version="opset1">
			<data destination_type="f32" />
			<rt_info>
				<attribute name="decompression" version="0" />
			</rt_info>
			<input>
				<port id="0" precision="FP16">
					<dim>1</dim>
					<dim>1</dim>
					<dim>1</dim>
					<dim>1</dim>
				</port>
			</input>
			<output>
				<port id="1" precision="FP32">
					<dim>1</dim>
					<dim>1</dim>
					<dim>1</dim>
					<dim>1</dim>
				</port>
			</output>
		</layer>
		<layer id="275" name="/TSCB_1/time_conformer/attn/fn/Mul_3" type="Multiply" version="opset1">
			<data auto_broadcast="numpy" />
			<input>
				<port id="0" precision="FP32">
					<dim>101</dim>
					<dim>4</dim>
					<dim>33</dim>
					<dim>33</dim>
				</port>
				<port id="1" precision="FP32">
					<dim>1</dim>
					<dim>1</dim>
					<dim>1</dim>
					<dim>1</dim>
				</port>
			</input>
			<output>
				<port id="2" precision="FP32" names="/TSCB_1/time_conformer/attn/fn/Mul_3_output_0">
					<dim>101</dim>
					<dim>4</dim>
					<dim>33</dim>
					<dim>33</dim>
				</port>
			</output>
		</layer>
		<layer id="276" name="/TSCB_1/time_conformer/attn/fn/Add_2" type="Add" version="opset1">
			<data auto_broadcast="numpy" />
			<input>
				<port id="0" precision="FP32">
					<dim>101</dim>
					<dim>4</dim>
					<dim>33</dim>
					<dim>33</dim>
				</port>
				<port id="1" precision="FP32">
					<dim>101</dim>
					<dim>4</dim>
					<dim>33</dim>
					<dim>33</dim>
				</port>
			</input>
			<output>
				<port id="2" precision="FP32" names="/TSCB_1/time_conformer/attn/fn/Add_2_output_0">
					<dim>101</dim>
					<dim>4</dim>
					<dim>33</dim>
					<dim>33</dim>
				</port>
			</output>
		</layer>
		<layer id="277" name="/TSCB_1/time_conformer/attn/fn/Softmax" type="SoftMax" version="opset8">
			<data axis="-1" />
			<input>
				<port id="0" precision="FP32">
					<dim>101</dim>
					<dim>4</dim>
					<dim>33</dim>
					<dim>33</dim>
				</port>
			</input>
			<output>
				<port id="1" precision="FP32" names="/TSCB_1/time_conformer/attn/fn/Softmax_output_0">
					<dim>101</dim>
					<dim>4</dim>
					<dim>33</dim>
					<dim>33</dim>
				</port>
			</output>
		</layer>
		<layer id="278" name="Constant_50702" type="Const" version="opset1">
			<data element_type="i64" shape="3" offset="617240" size="24" />
			<rt_info>
				<attribute name="precise" version="0" />
			</rt_info>
			<output>
				<port id="0" precision="I64">
					<dim>3</dim>
				</port>
			</output>
		</layer>
		<layer id="279" name="Constant_50701" type="Const" version="opset1">
			<data element_type="i64" shape="1" offset="526684" size="8" />
			<rt_info>
				<attribute name="precise" version="0" />
			</rt_info>
			<output>
				<port id="0" precision="I64">
					<dim>1</dim>
				</port>
			</output>
		</layer>
		<layer id="280" name="Constant_50700" type="Const" version="opset1">
			<data element_type="i32" shape="1" offset="617264" size="4" />
			<rt_info>
				<attribute name="precise" version="0" />
			</rt_info>
			<output>
				<port id="0" precision="I32">
					<dim>1</dim>
				</port>
			</output>
		</layer>
		<layer id="281" name="ScatterUpdate_50703" type="ScatterUpdate" version="opset3">
			<input>
				<port id="0" precision="I64">
					<dim>3</dim>
				</port>
				<port id="1" precision="I64">
					<dim>1</dim>
				</port>
				<port id="2" precision="I64">
					<dim>1</dim>
				</port>
				<port id="3" precision="I32">
					<dim>1</dim>
				</port>
			</input>
			<output>
				<port id="4" precision="I64">
					<dim>3</dim>
				</port>
			</output>
		</layer>
		<layer id="282" name="Constant_50704" type="Const" version="opset1">
			<data element_type="i64" shape="3" offset="617240" size="24" />
			<rt_info>
				<attribute name="precise" version="0" />
			</rt_info>
			<output>
				<port id="0" precision="I64">
					<dim>3</dim>
				</port>
			</output>
		</layer>
		<layer id="283" name="/TSCB_1/time_conformer/attn/fn/Constant_5" type="Const" version="opset1">
			<data element_type="i64" shape="1" offset="526684" size="8" />
			<rt_info>
				<attribute name="precise" version="0" />
			</rt_info>
			<output>
				<port id="0" precision="I64" names="/TSCB_1/time_conformer/attn/fn/Constant_5_output_0">
					<dim>1</dim>
				</port>
			</output>
		</layer>
		<layer id="284" name="/TSCB_1/time_conformer/attn/fn/Mul_1" type="Multiply" version="opset1">
			<data auto_broadcast="numpy" />
			<input>
				<port id="0" precision="I64">
					<dim>1</dim>
				</port>
				<port id="1" precision="I64">
					<dim>1</dim>
				</port>
			</input>
			<output>
				<port id="2" precision="I64" names="/TSCB_1/time_conformer/attn/fn/Mul_1_output_0">
					<dim>1</dim>
				</port>
			</output>
		</layer>
		<layer id="285" name="ScatterUpdate_50705" type="ScatterUpdate" version="opset3">
			<input>
				<port id="0" precision="I64">
					<dim>3</dim>
				</port>
				<port id="1" precision="I64">
					<dim>1</dim>
				</port>
				<port id="2" precision="I64">
					<dim>1</dim>
				</port>
				<port id="3" precision="I32">
					<dim>1</dim>
				</port>
			</input>
			<output>
				<port id="4" precision="I64">
					<dim>3</dim>
				</port>
			</output>
		</layer>
		<layer id="286" name="Constant_50708" type="Const" version="opset1">
			<data element_type="i64" shape="3" offset="617268" size="24" />
			<rt_info>
				<attribute name="precise" version="0" />
			</rt_info>
			<output>
				<port id="0" precision="I64">
					<dim>3</dim>
				</port>
			</output>
		</layer>
		<layer id="287" name="/TSCB_1/time_conformer/attn/fn/Slice_1" type="StridedSlice" version="opset1">
			<data begin_mask="1, 1, 0" end_mask="1, 1, 0" new_axis_mask="" shrink_axis_mask="" ellipsis_mask="" />
			<input>
				<port id="0" precision="FP32">
					<dim>101</dim>
					<dim>33</dim>
					<dim>128</dim>
				</port>
				<port id="1" precision="I64">
					<dim>3</dim>
				</port>
				<port id="2" precision="I64">
					<dim>3</dim>
				</port>
				<port id="3" precision="I64">
					<dim>3</dim>
				</port>
			</input>
			<output>
				<port id="4" precision="FP32" names="/TSCB_1/time_conformer/attn/fn/Slice_1_output_0">
					<dim>101</dim>
					<dim>33</dim>
					<dim>64</dim>
				</port>
			</output>
		</layer>
		<layer id="288" name="/TSCB_1/time_conformer/attn/fn/Reshape_2" type="Reshape" version="opset1">
			<data special_zero="true" />
			<input>
				<port id="0" precision="FP32">
					<dim>101</dim>
					<dim>33</dim>
					<dim>64</dim>
				</port>
				<port id="1" precision="I64">
					<dim>4</dim>
				</port>
			</input>
			<output>
				<port id="2" precision="FP32" names="/TSCB_1/time_conformer/attn/fn/Reshape_2_output_0">
					<dim>101</dim>
					<dim>33</dim>
					<dim>4</dim>
					<dim>16</dim>
				</port>
			</output>
		</layer>
		<layer id="289" name="Constant_1111_2" type="Const" version="opset1">
			<data element_type="i64" shape="4" offset="600824" size="32" />
			<output>
				<port id="0" precision="I64">
					<dim>4</dim>
				</port>
			</output>
		</layer>
		<layer id="290" name="/TSCB_1/time_conformer/attn/fn/Transpose_2" type="Transpose" version="opset1">
			<input>
				<port id="0" precision="FP32">
					<dim>101</dim>
					<dim>33</dim>
					<dim>4</dim>
					<dim>16</dim>
				</port>
				<port id="1" precision="I64">
					<dim>4</dim>
				</port>
			</input>
			<output>
				<port id="2" precision="FP32" names="/TSCB_1/time_conformer/attn/fn/Transpose_2_output_0">
					<dim>101</dim>
					<dim>4</dim>
					<dim>33</dim>
					<dim>16</dim>
				</port>
			</output>
		</layer>
		<layer id="291" name="/TSCB_1/time_conformer/attn/fn/Einsum_2" type="Einsum" version="opset7">
			<data equation="bhij,bhjd->bhid" />
			<input>
				<port id="0" precision="FP32">
					<dim>101</dim>
					<dim>4</dim>
					<dim>33</dim>
					<dim>33</dim>
				</port>
				<port id="1" precision="FP32">
					<dim>101</dim>
					<dim>4</dim>
					<dim>33</dim>
					<dim>16</dim>
				</port>
			</input>
			<output>
				<port id="2" precision="FP32" names="/TSCB_1/time_conformer/attn/fn/Einsum_2_output_0">
					<dim>101</dim>
					<dim>4</dim>
					<dim>33</dim>
					<dim>16</dim>
				</port>
			</output>
		</layer>
		<layer id="292" name="Constant_1165" type="Const" version="opset1">
			<data element_type="i64" shape="4" offset="600824" size="32" />
			<output>
				<port id="0" precision="I64">
					<dim>4</dim>
				</port>
			</output>
		</layer>
		<layer id="293" name="/TSCB_1/time_conformer/attn/fn/Transpose_3" type="Transpose" version="opset1">
			<input>
				<port id="0" precision="FP32">
					<dim>101</dim>
					<dim>4</dim>
					<dim>33</dim>
					<dim>16</dim>
				</port>
				<port id="1" precision="I64">
					<dim>4</dim>
				</port>
			</input>
			<output>
				<port id="2" precision="FP32" names="/TSCB_1/time_conformer/attn/fn/Transpose_3_output_0">
					<dim>101</dim>
					<dim>33</dim>
					<dim>4</dim>
					<dim>16</dim>
				</port>
			</output>
		</layer>
		<layer id="294" name="/TSCB_1/time_conformer/attn/fn/Shape_4" type="ShapeOf" version="opset3">
			<data output_type="i64" />
			<input>
				<port id="0" precision="FP32">
					<dim>101</dim>
					<dim>4</dim>
					<dim>33</dim>
					<dim>16</dim>
				</port>
			</input>
			<output>
				<port id="1" precision="I64" names="/TSCB_1/time_conformer/attn/fn/Shape_4_output_0,/TSCB_1/time_conformer/attn/fn/Shape_5_output_0,/TSCB_1/time_conformer/attn/fn/Shape_6_output_0,/TSCB_1/time_conformer/attn/fn/Shape_7_output_0">
					<dim>4</dim>
				</port>
			</output>
		</layer>
		<layer id="295" name="Constant_41072" type="Const" version="opset1">
			<data element_type="i64" shape="2" offset="650104" size="16" />
			<rt_info>
				<attribute name="precise" version="0" />
			</rt_info>
			<output>
				<port id="0" precision="I64">
					<dim>2</dim>
				</port>
			</output>
		</layer>
		<layer id="296" name="Constant_41073" type="Const" version="opset1">
			<data element_type="i64" shape="" offset="9216" size="8" />
			<rt_info>
				<attribute name="precise" version="0" />
			</rt_info>
			<output>
				<port id="0" precision="I64" />
			</output>
		</layer>
		<layer id="297" name="Gather_41074" type="Gather" version="opset8">
			<data batch_dims="0" />
			<input>
				<port id="0" precision="I64">
					<dim>4</dim>
				</port>
				<port id="1" precision="I64">
					<dim>2</dim>
				</port>
				<port id="2" precision="I64" />
			</input>
			<output>
				<port id="3" precision="I64">
					<dim>2</dim>
				</port>
			</output>
		</layer>
		<layer id="298" name="Constant_40903" type="Const" version="opset1">
			<data element_type="i64" shape="1" offset="9224" size="8" />
			<rt_info>
				<attribute name="precise" version="0" />
			</rt_info>
			<output>
				<port id="0" precision="I64">
					<dim>1</dim>
				</port>
			</output>
		</layer>
		<layer id="299" name="Constant_1155" type="Const" version="opset1">
			<data element_type="i64" shape="" offset="9216" size="8" />
			<rt_info>
				<attribute name="precise" version="0" />
			</rt_info>
			<output>
				<port id="0" precision="I64" />
			</output>
		</layer>
		<layer id="300" name="/TSCB_1/time_conformer/attn/fn/Gather_5" type="Gather" version="opset8">
			<data batch_dims="0" />
			<input>
				<port id="0" precision="I64">
					<dim>4</dim>
				</port>
				<port id="1" precision="I64">
					<dim>1</dim>
				</port>
				<port id="2" precision="I64" />
			</input>
			<output>
				<port id="3" precision="I64" names="/TSCB_1/time_conformer/attn/fn/Gather_5_output_0">
					<dim>1</dim>
				</port>
			</output>
		</layer>
		<layer id="301" name="Constant_40906" type="Const" version="opset1">
			<data element_type="i64" shape="1" offset="526660" size="8" />
			<rt_info>
				<attribute name="precise" version="0" />
			</rt_info>
			<output>
				<port id="0" precision="I64">
					<dim>1</dim>
				</port>
			</output>
		</layer>
		<layer id="302" name="Constant_1163" type="Const" version="opset1">
			<data element_type="i64" shape="" offset="9216" size="8" />
			<rt_info>
				<attribute name="precise" version="0" />
			</rt_info>
			<output>
				<port id="0" precision="I64" />
			</output>
		</layer>
		<layer id="303" name="/TSCB_1/time_conformer/attn/fn/Gather_7" type="Gather" version="opset8">
			<data batch_dims="0" />
			<input>
				<port id="0" precision="I64">
					<dim>4</dim>
				</port>
				<port id="1" precision="I64">
					<dim>1</dim>
				</port>
				<port id="2" precision="I64" />
			</input>
			<output>
				<port id="3" precision="I64" names="/TSCB_1/time_conformer/attn/fn/Gather_7_output_0">
					<dim>1</dim>
				</port>
			</output>
		</layer>
		<layer id="304" name="/TSCB_1/time_conformer/attn/fn/Mul_4" type="Multiply" version="opset1">
			<data auto_broadcast="numpy" />
			<input>
				<port id="0" precision="I64">
					<dim>1</dim>
				</port>
				<port id="1" precision="I64">
					<dim>1</dim>
				</port>
			</input>
			<output>
				<port id="2" precision="I64" names="/TSCB_1/time_conformer/attn/fn/Mul_4_output_0,/TSCB_1/time_conformer/attn/fn/Unsqueeze_13_output_0">
					<dim>1</dim>
				</port>
			</output>
		</layer>
		<layer id="305" name="/TSCB_1/time_conformer/attn/fn/Concat_3" type="Concat" version="opset1">
			<data axis="0" />
			<input>
				<port id="0" precision="I64">
					<dim>2</dim>
				</port>
				<port id="1" precision="I64">
					<dim>1</dim>
				</port>
			</input>
			<output>
				<port id="2" precision="I64" names="/TSCB_1/time_conformer/attn/fn/Concat_3_output_0">
					<dim>3</dim>
				</port>
			</output>
		</layer>
		<layer id="306" name="/TSCB_1/time_conformer/attn/fn/Reshape_3" type="Reshape" version="opset1">
			<data special_zero="true" />
			<input>
				<port id="0" precision="FP32">
					<dim>101</dim>
					<dim>33</dim>
					<dim>4</dim>
					<dim>16</dim>
				</port>
				<port id="1" precision="I64">
					<dim>3</dim>
				</port>
			</input>
			<output>
				<port id="2" precision="FP32" names="/TSCB_1/time_conformer/attn/fn/Reshape_3_output_0">
					<dim>101</dim>
					<dim>33</dim>
					<dim>64</dim>
				</port>
			</output>
		</layer>
		<layer id="307" name="Transpose_59261_compressed" type="Const" version="opset1">
			<data element_type="f16" shape="64, 64" offset="650120" size="8192" />
			<output>
				<port id="0" precision="FP16">
					<dim>64</dim>
					<dim>64</dim>
				</port>
			</output>
		</layer>
		<layer id="308" name="Transpose_59261" type="Convert" version="opset1">
			<data destination_type="f32" />
			<rt_info>
				<attribute name="decompression" version="0" />
			</rt_info>
			<input>
				<port id="0" precision="FP16">
					<dim>64</dim>
					<dim>64</dim>
				</port>
			</input>
			<output>
				<port id="1" precision="FP32">
					<dim>64</dim>
					<dim>64</dim>
				</port>
			</output>
		</layer>
		<layer id="309" name="/TSCB_1/time_conformer/attn/fn/to_out/MatMul" type="MatMul" version="opset1">
			<data transpose_a="false" transpose_b="true" />
			<input>
				<port id="0" precision="FP32">
					<dim>101</dim>
					<dim>33</dim>
					<dim>64</dim>
				</port>
				<port id="1" precision="FP32">
					<dim>64</dim>
					<dim>64</dim>
				</port>
			</input>
			<output>
				<port id="2" precision="FP32" names="/TSCB_1/time_conformer/attn/fn/to_out/MatMul_output_0">
					<dim>101</dim>
					<dim>33</dim>
					<dim>64</dim>
				</port>
			</output>
		</layer>
		<layer id="310" name="/TSCB_1/time_conformer/attn/fn/to_out/Add" type="Add" version="opset1">
			<data auto_broadcast="numpy" />
			<input>
				<port id="0" precision="FP32">
					<dim>1</dim>
					<dim>1</dim>
					<dim>64</dim>
				</port>
				<port id="1" precision="FP32">
					<dim>101</dim>
					<dim>33</dim>
					<dim>64</dim>
				</port>
			</input>
			<output>
				<port id="2" precision="FP32" names="/TSCB_1/time_conformer/attn/fn/to_out/Add_output_0">
					<dim>101</dim>
					<dim>33</dim>
					<dim>64</dim>
				</port>
			</output>
		</layer>
		<layer id="311" name="/TSCB_1/time_conformer/Add_1" type="Add" version="opset1">
			<data auto_broadcast="numpy" />
			<input>
				<port id="0" precision="FP32">
					<dim>101</dim>
					<dim>33</dim>
					<dim>64</dim>
				</port>
				<port id="1" precision="FP32">
					<dim>101</dim>
					<dim>33</dim>
					<dim>64</dim>
				</port>
			</input>
			<output>
				<port id="2" precision="FP32" names="/TSCB_1/time_conformer/Add_1_output_0">
					<dim>101</dim>
					<dim>33</dim>
					<dim>64</dim>
				</port>
			</output>
		</layer>
		<layer id="312" name="Func_/TSCB_1/time_conformer/conv/net/net.0/LayerNormalizationXShape" type="ShapeOf" version="opset3">
			<data output_type="i64" />
			<input>
				<port id="0" precision="FP32">
					<dim>101</dim>
					<dim>33</dim>
					<dim>64</dim>
				</port>
			</input>
			<output>
				<port id="1" precision="I64" names="Func_/TSCB_1/time_conformer/conv/net/net.0/LayerNormalizationXShape">
					<dim>3</dim>
				</port>
			</output>
		</layer>
		<layer id="313" name="Constant_1205" type="Const" version="opset1">
			<data element_type="i64" shape="1" offset="9216" size="8" />
			<rt_info>
				<attribute name="precise" version="0" />
			</rt_info>
			<output>
				<port id="0" precision="I64">
					<dim>1</dim>
				</port>
			</output>
		</layer>
		<layer id="314" name="Constant_1204" type="Const" version="opset1">
			<data element_type="i64" shape="1" offset="526684" size="8" />
			<rt_info>
				<attribute name="precise" version="0" />
			</rt_info>
			<output>
				<port id="0" precision="I64">
					<dim>1</dim>
				</port>
			</output>
		</layer>
		<layer id="315" name="Constant_1206" type="Const" version="opset1">
			<data element_type="i64" shape="1" offset="9224" size="8" />
			<rt_info>
				<attribute name="precise" version="0" />
			</rt_info>
			<output>
				<port id="0" precision="I64">
					<dim>1</dim>
				</port>
			</output>
		</layer>
		<layer id="316" name="StridedSlice_1207" type="StridedSlice" version="opset1">
			<data begin_mask="0" end_mask="0" new_axis_mask="" shrink_axis_mask="" ellipsis_mask="" />
			<input>
				<port id="0" precision="I64">
					<dim>3</dim>
				</port>
				<port id="1" precision="I64">
					<dim>1</dim>
				</port>
				<port id="2" precision="I64">
					<dim>1</dim>
				</port>
				<port id="3" precision="I64">
					<dim>1</dim>
				</port>
			</input>
			<output>
				<port id="4" precision="I64">
					<dim>2</dim>
				</port>
			</output>
		</layer>
		<layer id="317" name="Constant_1208" type="Const" version="opset1">
			<data element_type="i64" shape="" offset="9216" size="8" />
			<rt_info>
				<attribute name="precise" version="0" />
			</rt_info>
			<output>
				<port id="0" precision="I64" />
			</output>
		</layer>
		<layer id="318" name="ReduceProd_1209" type="ReduceProd" version="opset1">
			<data keep_dims="true" />
			<input>
				<port id="0" precision="I64">
					<dim>2</dim>
				</port>
				<port id="1" precision="I64" />
			</input>
			<output>
				<port id="2" precision="I64">
					<dim>1</dim>
				</port>
			</output>
		</layer>
		<layer id="319" name="Constant_1210" type="Const" version="opset1">
			<data element_type="i64" shape="1" offset="526692" size="8" />
			<rt_info>
				<attribute name="precise" version="0" />
			</rt_info>
			<output>
				<port id="0" precision="I64">
					<dim>1</dim>
				</port>
			</output>
		</layer>
		<layer id="320" name="Concat_1211" type="Concat" version="opset1">
			<data axis="0" />
			<input>
				<port id="0" precision="I64">
					<dim>1</dim>
				</port>
				<port id="1" precision="I64">
					<dim>1</dim>
				</port>
			</input>
			<output>
				<port id="2" precision="I64">
					<dim>2</dim>
				</port>
			</output>
		</layer>
		<layer id="321" name="Func_/TSCB_1/time_conformer/conv/net/net.0/LayerNormalizationX2D" type="Reshape" version="opset1">
			<data special_zero="true" />
			<input>
				<port id="0" precision="FP32">
					<dim>101</dim>
					<dim>33</dim>
					<dim>64</dim>
				</port>
				<port id="1" precision="I64">
					<dim>2</dim>
				</port>
			</input>
			<output>
				<port id="2" precision="FP32" names="Func_/TSCB_1/time_conformer/conv/net/net.0/LayerNormalizationX2D,Func_/TSCB_1/time_conformer/conv/net/net.0/LayerNormalizationXU">
					<dim>3333</dim>
					<dim>64</dim>
				</port>
			</output>
		</layer>
		<layer id="322" name="Constant_1249" type="Const" version="opset1">
			<data element_type="i64" shape="1" offset="9224" size="8" />
			<output>
				<port id="0" precision="I64">
					<dim>1</dim>
				</port>
			</output>
		</layer>
		<layer id="323" name="Func_/TSCB_1/time_conformer/conv/net/net.0/LayerNormalizationMean2D" type="ReduceMean" version="opset1">
			<data keep_dims="true" />
			<input>
				<port id="0" precision="FP32">
					<dim>3333</dim>
					<dim>64</dim>
				</port>
				<port id="1" precision="I64">
					<dim>1</dim>
				</port>
			</input>
			<output>
				<port id="2" precision="FP32" names="Func_/TSCB_1/time_conformer/conv/net/net.0/LayerNormalizationMean2D">
					<dim>3333</dim>
					<dim>1</dim>
				</port>
			</output>
		</layer>
		<layer id="324" name="Func_/TSCB_1/time_conformer/conv/net/net.0/LayerNormalizationDeviation" type="Subtract" version="opset1">
			<data auto_broadcast="numpy" />
			<input>
				<port id="0" precision="FP32">
					<dim>3333</dim>
					<dim>64</dim>
				</port>
				<port id="1" precision="FP32">
					<dim>3333</dim>
					<dim>1</dim>
				</port>
			</input>
			<output>
				<port id="2" precision="FP32" names="Func_/TSCB_1/time_conformer/conv/net/net.0/LayerNormalizationDeviation">
					<dim>3333</dim>
					<dim>64</dim>
				</port>
			</output>
		</layer>
		<layer id="325" name="Func_/TSCB_1/time_conformer/conv/net/net.0/LayerNormalizationSquare" type="Multiply" version="opset1">
			<data auto_broadcast="numpy" />
			<input>
				<port id="0" precision="FP32">
					<dim>3333</dim>
					<dim>64</dim>
				</port>
				<port id="1" precision="FP32">
					<dim>3333</dim>
					<dim>64</dim>
				</port>
			</input>
			<output>
				<port id="2" precision="FP32" names="Func_/TSCB_1/time_conformer/conv/net/net.0/LayerNormalizationSquare">
					<dim>3333</dim>
					<dim>64</dim>
				</port>
			</output>
		</layer>
		<layer id="326" name="Constant_1252" type="Const" version="opset1">
			<data element_type="i64" shape="1" offset="9224" size="8" />
			<output>
				<port id="0" precision="I64">
					<dim>1</dim>
				</port>
			</output>
		</layer>
		<layer id="327" name="Func_/TSCB_1/time_conformer/conv/net/net.0/LayerNormalizationMeanOfSquare" type="ReduceMean" version="opset1">
			<data keep_dims="true" />
			<input>
				<port id="0" precision="FP32">
					<dim>3333</dim>
					<dim>64</dim>
				</port>
				<port id="1" precision="I64">
					<dim>1</dim>
				</port>
			</input>
			<output>
				<port id="2" precision="FP32" names="Func_/TSCB_1/time_conformer/conv/net/net.0/LayerNormalizationMeanOfSquare">
					<dim>3333</dim>
					<dim>1</dim>
				</port>
			</output>
		</layer>
		<layer id="328" name="Func_/TSCB_1/time_conformer/conv/net/net.0/LayerNormalizationSquareOfMean" type="Multiply" version="opset1">
			<data auto_broadcast="numpy" />
			<input>
				<port id="0" precision="FP32">
					<dim>3333</dim>
					<dim>1</dim>
				</port>
				<port id="1" precision="FP32">
					<dim>3333</dim>
					<dim>1</dim>
				</port>
			</input>
			<output>
				<port id="2" precision="FP32" names="Func_/TSCB_1/time_conformer/conv/net/net.0/LayerNormalizationSquareOfMean">
					<dim>3333</dim>
					<dim>1</dim>
				</port>
			</output>
		</layer>
		<layer id="329" name="Func_/TSCB_1/time_conformer/conv/net/net.0/LayerNormalizationVar" type="Subtract" version="opset1">
			<data auto_broadcast="numpy" />
			<input>
				<port id="0" precision="FP32">
					<dim>3333</dim>
					<dim>1</dim>
				</port>
				<port id="1" precision="FP32">
					<dim>3333</dim>
					<dim>1</dim>
				</port>
			</input>
			<output>
				<port id="2" precision="FP32" names="Func_/TSCB_1/time_conformer/conv/net/net.0/LayerNormalizationVar">
					<dim>3333</dim>
					<dim>1</dim>
				</port>
			</output>
		</layer>
		<layer id="330" name="Constant_60618_compressed" type="Const" version="opset1">
			<data element_type="f16" shape="1, 1" offset="658312" size="2" />
			<output>
				<port id="0" precision="FP16">
					<dim>1</dim>
					<dim>1</dim>
				</port>
			</output>
		</layer>
		<layer id="331" name="Constant_60618" type="Convert" version="opset1">
			<data destination_type="f32" />
			<rt_info>
				<attribute name="decompression" version="0" />
			</rt_info>
			<input>
				<port id="0" precision="FP16">
					<dim>1</dim>
					<dim>1</dim>
				</port>
			</input>
			<output>
				<port id="1" precision="FP32">
					<dim>1</dim>
					<dim>1</dim>
				</port>
			</output>
		</layer>
		<layer id="332" name="Func_/TSCB_1/time_conformer/conv/net/net.0/LayerNormalizationVarPlusEpsilon" type="Add" version="opset1">
			<data auto_broadcast="numpy" />
			<input>
				<port id="0" precision="FP32">
					<dim>3333</dim>
					<dim>1</dim>
				</port>
				<port id="1" precision="FP32">
					<dim>1</dim>
					<dim>1</dim>
				</port>
			</input>
			<output>
				<port id="2" precision="FP32" names="Func_/TSCB_1/time_conformer/conv/net/net.0/LayerNormalizationVarPlusEpsilon">
					<dim>3333</dim>
					<dim>1</dim>
				</port>
			</output>
		</layer>
		<layer id="333" name="Func_/TSCB_1/time_conformer/conv/net/net.0/LayerNormalizationStdDev" type="Sqrt" version="opset1">
			<input>
				<port id="0" precision="FP32">
					<dim>3333</dim>
					<dim>1</dim>
				</port>
			</input>
			<output>
				<port id="1" precision="FP32" names="Func_/TSCB_1/time_conformer/conv/net/net.0/LayerNormalizationStdDev">
					<dim>3333</dim>
					<dim>1</dim>
				</port>
			</output>
		</layer>
		<layer id="334" name="Func_/TSCB_1/time_conformer/conv/net/net.0/LayerNormalizationNormalized" type="Divide" version="opset1">
			<data auto_broadcast="numpy" m_pythondiv="true" />
			<input>
				<port id="0" precision="FP32">
					<dim>3333</dim>
					<dim>64</dim>
				</port>
				<port id="1" precision="FP32">
					<dim>3333</dim>
					<dim>1</dim>
				</port>
			</input>
			<output>
				<port id="2" precision="FP32" names="Func_/TSCB_1/time_conformer/conv/net/net.0/LayerNormalizationNormalized,Func_/TSCB_1/time_conformer/conv/net/net.0/LayerNormalizationNormalizedT">
					<dim>3333</dim>
					<dim>64</dim>
				</port>
			</output>
		</layer>
		<layer id="335" name="Func_/TSCB_1/time_conformer/conv/net/net.0/LayerNormalizationScale2D_compressed" type="Const" version="opset1">
			<data element_type="f16" shape="1, 64" offset="658314" size="128" />
			<output>
				<port id="0" precision="FP16" names="Func_/TSCB_1/time_conformer/conv/net/net.0/LayerNormalizationScale2D">
					<dim>1</dim>
					<dim>64</dim>
				</port>
			</output>
		</layer>
		<layer id="336" name="Func_/TSCB_1/time_conformer/conv/net/net.0/LayerNormalizationScale2D" type="Convert" version="opset1">
			<data destination_type="f32" />
			<rt_info>
				<attribute name="decompression" version="0" />
			</rt_info>
			<input>
				<port id="0" precision="FP16">
					<dim>1</dim>
					<dim>64</dim>
				</port>
			</input>
			<output>
				<port id="1" precision="FP32">
					<dim>1</dim>
					<dim>64</dim>
				</port>
			</output>
		</layer>
		<layer id="337" name="Func_/TSCB_1/time_conformer/conv/net/net.0/LayerNormalizationScaled" type="Multiply" version="opset1">
			<data auto_broadcast="numpy" />
			<input>
				<port id="0" precision="FP32">
					<dim>3333</dim>
					<dim>64</dim>
				</port>
				<port id="1" precision="FP32">
					<dim>1</dim>
					<dim>64</dim>
				</port>
			</input>
			<output>
				<port id="2" precision="FP32" names="Func_/TSCB_1/time_conformer/conv/net/net.0/LayerNormalizationBiased,Func_/TSCB_1/time_conformer/conv/net/net.0/LayerNormalizationScaled">
					<dim>3333</dim>
					<dim>64</dim>
				</port>
			</output>
		</layer>
		<layer id="338" name="/TSCB_1/time_conformer/conv/net/net.0/LayerNormalization_output_0" type="Reshape" version="opset1">
			<data special_zero="true" />
			<input>
				<port id="0" precision="FP32">
					<dim>3333</dim>
					<dim>64</dim>
				</port>
				<port id="1" precision="I64">
					<dim>3</dim>
				</port>
			</input>
			<output>
				<port id="2" precision="FP32" names="/TSCB_1/time_conformer/conv/net/net.0/LayerNormalization_output_0">
					<dim>101</dim>
					<dim>33</dim>
					<dim>64</dim>
				</port>
			</output>
		</layer>
		<layer id="339" name="Constant_1270" type="Const" version="opset1">
			<data element_type="i64" shape="3" offset="658442" size="24" />
			<output>
				<port id="0" precision="I64">
					<dim>3</dim>
				</port>
			</output>
		</layer>
		<layer id="340" name="/TSCB_1/time_conformer/conv/net/net.1/Transpose" type="Transpose" version="opset1">
			<input>
				<port id="0" precision="FP32">
					<dim>101</dim>
					<dim>33</dim>
					<dim>64</dim>
				</port>
				<port id="1" precision="I64">
					<dim>3</dim>
				</port>
			</input>
			<output>
				<port id="2" precision="FP32" names="/TSCB_1/time_conformer/conv/net/net.1/Transpose_output_0">
					<dim>101</dim>
					<dim>64</dim>
					<dim>33</dim>
				</port>
			</output>
		</layer>
		<layer id="341" name="TSCB_1.time_conformer.conv.net.2.weight_compressed" type="Const" version="opset1">
			<data element_type="f16" shape="256, 64, 1" offset="658466" size="32768" />
			<output>
				<port id="0" precision="FP16" names="TSCB_1.time_conformer.conv.net.2.weight">
					<dim>256</dim>
					<dim>64</dim>
					<dim>1</dim>
				</port>
			</output>
		</layer>
		<layer id="342" name="TSCB_1.time_conformer.conv.net.2.weight" type="Convert" version="opset1">
			<data destination_type="f32" />
			<rt_info>
				<attribute name="decompression" version="0" />
			</rt_info>
			<input>
				<port id="0" precision="FP16">
					<dim>256</dim>
					<dim>64</dim>
					<dim>1</dim>
				</port>
			</input>
			<output>
				<port id="1" precision="FP32">
					<dim>256</dim>
					<dim>64</dim>
					<dim>1</dim>
				</port>
			</output>
		</layer>
		<layer id="343" name="/TSCB_1/time_conformer/conv/net/net.2/Conv/WithoutBiases" type="Convolution" version="opset1">
			<data strides="1" dilations="1" pads_begin="0" pads_end="0" auto_pad="explicit" />
			<input>
				<port id="0" precision="FP32">
					<dim>101</dim>
					<dim>64</dim>
					<dim>33</dim>
				</port>
				<port id="1" precision="FP32">
					<dim>256</dim>
					<dim>64</dim>
					<dim>1</dim>
				</port>
			</input>
			<output>
				<port id="2" precision="FP32">
					<dim>101</dim>
					<dim>256</dim>
					<dim>33</dim>
				</port>
			</output>
		</layer>
		<layer id="344" name="Reshape_1283_compressed" type="Const" version="opset1">
			<data element_type="f16" shape="1, 256, 1" offset="691234" size="512" />
			<output>
				<port id="0" precision="FP16">
					<dim>1</dim>
					<dim>256</dim>
					<dim>1</dim>
				</port>
			</output>
		</layer>
		<layer id="345" name="Reshape_1283" type="Convert" version="opset1">
			<data destination_type="f32" />
			<rt_info>
				<attribute name="decompression" version="0" />
			</rt_info>
			<input>
				<port id="0" precision="FP16">
					<dim>1</dim>
					<dim>256</dim>
					<dim>1</dim>
				</port>
			</input>
			<output>
				<port id="1" precision="FP32">
					<dim>1</dim>
					<dim>256</dim>
					<dim>1</dim>
				</port>
			</output>
		</layer>
		<layer id="346" name="/TSCB_1/time_conformer/conv/net/net.2/Conv" type="Add" version="opset1">
			<data auto_broadcast="numpy" />
			<input>
				<port id="0" precision="FP32">
					<dim>101</dim>
					<dim>256</dim>
					<dim>33</dim>
				</port>
				<port id="1" precision="FP32">
					<dim>1</dim>
					<dim>256</dim>
					<dim>1</dim>
				</port>
			</input>
			<output>
				<port id="2" precision="FP32" names="/TSCB_1/time_conformer/conv/net/net.2/Conv_output_0">
					<dim>101</dim>
					<dim>256</dim>
					<dim>33</dim>
				</port>
			</output>
		</layer>
		<layer id="347" name="Constant_50798" type="Const" version="opset1">
			<data element_type="i64" shape="2" offset="691746" size="16" />
			<rt_info>
				<attribute name="precise" version="0" />
			</rt_info>
			<output>
				<port id="0" precision="I64">
					<dim>2</dim>
				</port>
			</output>
		</layer>
		<layer id="348" name="Constant_50799" type="Const" version="opset1">
			<data element_type="i64" shape="2" offset="691746" size="16" />
			<rt_info>
				<attribute name="precise" version="0" />
			</rt_info>
			<output>
				<port id="0" precision="I64">
					<dim>2</dim>
				</port>
			</output>
		</layer>
		<layer id="349" name="Constant_50795" type="Const" version="opset1">
			<data element_type="i64" shape="1" offset="9224" size="8" />
			<rt_info>
				<attribute name="precise" version="0" />
			</rt_info>
			<output>
				<port id="0" precision="I64">
					<dim>1</dim>
				</port>
			</output>
		</layer>
		<layer id="350" name="/TSCB_1/time_conformer/conv/net/net.3/Shape" type="ShapeOf" version="opset3">
			<data output_type="i64" />
			<input>
				<port id="0" precision="FP32">
					<dim>101</dim>
					<dim>256</dim>
					<dim>33</dim>
				</port>
			</input>
			<output>
				<port id="1" precision="I64" names="/TSCB_1/time_conformer/conv/net/net.3/Shape_output_0">
					<dim>3</dim>
				</port>
			</output>
		</layer>
		<layer id="351" name="/TSCB_1/time_conformer/conv/net/net.3/Constant" type="Const" version="opset1">
			<data element_type="i64" shape="1" offset="9224" size="8" />
			<rt_info>
				<attribute name="precise" version="0" />
			</rt_info>
			<output>
				<port id="0" precision="I64" names="/TSCB_1/time_conformer/conv/net/net.3/Constant_output_0">
					<dim>1</dim>
				</port>
			</output>
		</layer>
		<layer id="352" name="Constant_1287" type="Const" version="opset1">
			<data element_type="i64" shape="" offset="9216" size="8" />
			<rt_info>
				<attribute name="precise" version="0" />
			</rt_info>
			<output>
				<port id="0" precision="I64" />
			</output>
		</layer>
		<layer id="353" name="/TSCB_1/time_conformer/conv/net/net.3/Gather" type="Gather" version="opset8">
			<data batch_dims="0" />
			<input>
				<port id="0" precision="I64">
					<dim>3</dim>
				</port>
				<port id="1" precision="I64">
					<dim>1</dim>
				</port>
…
		<edge from-layer="2414" from-port="0" to-layer="2415" to-port="1" />
		<edge from-layer="2415" from-port="2" to-layer="2417" to-port="0" />
		<edge from-layer="2416" from-port="2" to-layer="2417" to-port="1" />
		<edge from-layer="2417" from-port="2" to-layer="2420" to-port="0" />
		<edge from-layer="2418" from-port="0" to-layer="2419" to-port="0" />
		<edge from-layer="2419" from-port="1" to-layer="2420" to-port="1" />
		<edge from-layer="2420" from-port="2" to-layer="2421" to-port="0" />
		<edge from-layer="2421" from-port="1" to-layer="2422" to-port="1" />
		<edge from-layer="2422" from-port="2" to-layer="2425" to-port="0" />
		<edge from-layer="2423" from-port="0" to-layer="2424" to-port="0" />
		<edge from-layer="2424" from-port="1" to-layer="2425" to-port="1" />
		<edge from-layer="2425" from-port="2" to-layer="2426" to-port="0" />
		<edge from-layer="2426" from-port="2" to-layer="2429" to-port="0" />
		<edge from-layer="2427" from-port="0" to-layer="2428" to-port="0" />
		<edge from-layer="2428" from-port="1" to-layer="2429" to-port="1" />
		<edge from-layer="2429" from-port="2" to-layer="2430" to-port="1" />
		<edge from-layer="2430" from-port="2" to-layer="2431" to-port="0" />
		<edge from-layer="2431" from-port="1" to-layer="2434" to-port="0" />
		<edge from-layer="2432" from-port="0" to-layer="2433" to-port="0" />
		<edge from-layer="2433" from-port="1" to-layer="2434" to-port="1" />
		<edge from-layer="2434" from-port="2" to-layer="2437" to-port="0" />
		<edge from-layer="2435" from-port="0" to-layer="2436" to-port="0" />
		<edge from-layer="2436" from-port="1" to-layer="2437" to-port="1" />
		<edge from-layer="2437" from-port="2" to-layer="2438" to-port="0" />
		<edge from-layer="2438" from-port="2" to-layer="2448" to-port="0" />
		<edge from-layer="2438" from-port="2" to-layer="2439" to-port="0" />
		<edge from-layer="2439" from-port="1" to-layer="2443" to-port="0" />
		<edge from-layer="2439" from-port="1" to-layer="2465" to-port="1" />
		<edge from-layer="2440" from-port="0" to-layer="2443" to-port="1" />
		<edge from-layer="2441" from-port="0" to-layer="2443" to-port="2" />
		<edge from-layer="2442" from-port="0" to-layer="2443" to-port="3" />
		<edge from-layer="2443" from-port="4" to-layer="2445" to-port="0" />
		<edge from-layer="2444" from-port="0" to-layer="2445" to-port="1" />
		<edge from-layer="2445" from-port="2" to-layer="2447" to-port="0" />
		<edge from-layer="2446" from-port="0" to-layer="2447" to-port="1" />
		<edge from-layer="2447" from-port="2" to-layer="2448" to-port="1" />
		<edge from-layer="2448" from-port="2" to-layer="2450" to-port="0" />
		<edge from-layer="2448" from-port="2" to-layer="2452" to-port="0" />
		<edge from-layer="2448" from-port="2" to-layer="2451" to-port="0" />
		<edge from-layer="2448" from-port="2" to-layer="2452" to-port="1" />
		<edge from-layer="2449" from-port="0" to-layer="2450" to-port="1" />
		<edge from-layer="2450" from-port="2" to-layer="2451" to-port="1" />
		<edge from-layer="2450" from-port="2" to-layer="2455" to-port="0" />
		<edge from-layer="2450" from-port="2" to-layer="2455" to-port="1" />
		<edge from-layer="2451" from-port="2" to-layer="2461" to-port="0" />
		<edge from-layer="2452" from-port="2" to-layer="2454" to-port="0" />
		<edge from-layer="2453" from-port="0" to-layer="2454" to-port="1" />
		<edge from-layer="2454" from-port="2" to-layer="2456" to-port="0" />
		<edge from-layer="2455" from-port="2" to-layer="2456" to-port="1" />
		<edge from-layer="2456" from-port="2" to-layer="2459" to-port="0" />
		<edge from-layer="2457" from-port="0" to-layer="2458" to-port="0" />
		<edge from-layer="2458" from-port="1" to-layer="2459" to-port="1" />
		<edge from-layer="2459" from-port="2" to-layer="2460" to-port="0" />
		<edge from-layer="2460" from-port="1" to-layer="2461" to-port="1" />
		<edge from-layer="2461" from-port="2" to-layer="2464" to-port="0" />
		<edge from-layer="2462" from-port="0" to-layer="2463" to-port="0" />
		<edge from-layer="2463" from-port="1" to-layer="2464" to-port="1" />
		<edge from-layer="2464" from-port="2" to-layer="2465" to-port="0" />
		<edge from-layer="2465" from-port="2" to-layer="2466" to-port="0" />
		<edge from-layer="2466" from-port="2" to-layer="2470" to-port="0" />
		<edge from-layer="2467" from-port="0" to-layer="2469" to-port="1" />
		<edge from-layer="2468" from-port="0" to-layer="2469" to-port="2" />
		<edge from-layer="2469" from-port="3" to-layer="2470" to-port="1" />
		<edge from-layer="2470" from-port="2" to-layer="2472" to-port="0" />
		<edge from-layer="2471" from-port="0" to-layer="2472" to-port="1" />
		<edge from-layer="2472" from-port="2" to-layer="2481" to-port="0" />
		<edge from-layer="2473" from-port="0" to-layer="2475" to-port="1" />
		<edge from-layer="2474" from-port="0" to-layer="2475" to-port="2" />
		<edge from-layer="2475" from-port="3" to-layer="2476" to-port="1" />
		<edge from-layer="2476" from-port="2" to-layer="2480" to-port="0" />
		<edge from-layer="2477" from-port="0" to-layer="2479" to-port="1" />
		<edge from-layer="2478" from-port="0" to-layer="2479" to-port="2" />
		<edge from-layer="2479" from-port="3" to-layer="2480" to-port="1" />
		<edge from-layer="2480" from-port="2" to-layer="2481" to-port="1" />
		<edge from-layer="2481" from-port="2" to-layer="2798" to-port="1" />
		<edge from-layer="2481" from-port="2" to-layer="2520" to-port="1" />
		<edge from-layer="2481" from-port="2" to-layer="2482" to-port="0" />
		<edge from-layer="2481" from-port="2" to-layer="2491" to-port="0" />
		<edge from-layer="2482" from-port="1" to-layer="2486" to-port="0" />
		<edge from-layer="2482" from-port="1" to-layer="2508" to-port="1" />
		<edge from-layer="2483" from-port="0" to-layer="2486" to-port="1" />
		<edge from-layer="2484" from-port="0" to-layer="2486" to-port="2" />
		<edge from-layer="2485" from-port="0" to-layer="2486" to-port="3" />
		<edge from-layer="2486" from-port="4" to-layer="2488" to-port="0" />
		<edge from-layer="2487" from-port="0" to-layer="2488" to-port="1" />
		<edge from-layer="2488" from-port="2" to-layer="2490" to-port="0" />
		<edge from-layer="2489" from-port="0" to-layer="2490" to-port="1" />
		<edge from-layer="2490" from-port="2" to-layer="2491" to-port="1" />
		<edge from-layer="2491" from-port="2" to-layer="2493" to-port="0" />
		<edge from-layer="2491" from-port="2" to-layer="2494" to-port="0" />
		<edge from-layer="2491" from-port="2" to-layer="2495" to-port="1" />
		<edge from-layer="2491" from-port="2" to-layer="2495" to-port="0" />
		<edge from-layer="2492" from-port="0" to-layer="2493" to-port="1" />
		<edge from-layer="2493" from-port="2" to-layer="2494" to-port="1" />
		<edge from-layer="2493" from-port="2" to-layer="2498" to-port="0" />
		<edge from-layer="2493" from-port="2" to-layer="2498" to-port="1" />
		<edge from-layer="2494" from-port="2" to-layer="2504" to-port="0" />
		<edge from-layer="2495" from-port="2" to-layer="2497" to-port="0" />
		<edge from-layer="2496" from-port="0" to-layer="2497" to-port="1" />
		<edge from-layer="2497" from-port="2" to-layer="2499" to-port="0" />
		<edge from-layer="2498" from-port="2" to-layer="2499" to-port="1" />
		<edge from-layer="2499" from-port="2" to-layer="2502" to-port="0" />
		<edge from-layer="2500" from-port="0" to-layer="2501" to-port="0" />
		<edge from-layer="2501" from-port="1" to-layer="2502" to-port="1" />
		<edge from-layer="2502" from-port="2" to-layer="2503" to-port="0" />
		<edge from-layer="2503" from-port="1" to-layer="2504" to-port="1" />
		<edge from-layer="2504" from-port="2" to-layer="2507" to-port="0" />
		<edge from-layer="2505" from-port="0" to-layer="2506" to-port="0" />
		<edge from-layer="2506" from-port="1" to-layer="2507" to-port="1" />
		<edge from-layer="2507" from-port="2" to-layer="2508" to-port="0" />
		<edge from-layer="2508" from-port="2" to-layer="2511" to-port="0" />
		<edge from-layer="2509" from-port="0" to-layer="2510" to-port="0" />
		<edge from-layer="2510" from-port="1" to-layer="2511" to-port="1" />
		<edge from-layer="2511" from-port="2" to-layer="2512" to-port="1" />
		<edge from-layer="2512" from-port="2" to-layer="2513" to-port="0" />
		<edge from-layer="2513" from-port="1" to-layer="2516" to-port="0" />
		<edge from-layer="2514" from-port="0" to-layer="2515" to-port="0" />
		<edge from-layer="2515" from-port="1" to-layer="2516" to-port="1" />
		<edge from-layer="2516" from-port="2" to-layer="2519" to-port="0" />
		<edge from-layer="2517" from-port="0" to-layer="2518" to-port="0" />
		<edge from-layer="2518" from-port="1" to-layer="2519" to-port="1" />
		<edge from-layer="2519" from-port="2" to-layer="2520" to-port="0" />
		<edge from-layer="2520" from-port="2" to-layer="2653" to-port="1" />
		<edge from-layer="2520" from-port="2" to-layer="2530" to-port="0" />
		<edge from-layer="2520" from-port="2" to-layer="2521" to-port="0" />
		<edge from-layer="2521" from-port="1" to-layer="2525" to-port="0" />
		<edge from-layer="2521" from-port="1" to-layer="2547" to-port="1" />
		<edge from-layer="2522" from-port="0" to-layer="2525" to-port="1" />
		<edge from-layer="2523" from-port="0" to-layer="2525" to-port="2" />
		<edge from-layer="2524" from-port="0" to-layer="2525" to-port="3" />
		<edge from-layer="2525" from-port="4" to-layer="2527" to-port="0" />
		<edge from-layer="2526" from-port="0" to-layer="2527" to-port="1" />
		<edge from-layer="2527" from-port="2" to-layer="2529" to-port="0" />
		<edge from-layer="2528" from-port="0" to-layer="2529" to-port="1" />
		<edge from-layer="2529" from-port="2" to-layer="2530" to-port="1" />
		<edge from-layer="2530" from-port="2" to-layer="2532" to-port="0" />
		<edge from-layer="2530" from-port="2" to-layer="2534" to-port="0" />
		<edge from-layer="2530" from-port="2" to-layer="2533" to-port="0" />
		<edge from-layer="2530" from-port="2" to-layer="2534" to-port="1" />
		<edge from-layer="2531" from-port="0" to-layer="2532" to-port="1" />
		<edge from-layer="2532" from-port="2" to-layer="2533" to-port="1" />
		<edge from-layer="2532" from-port="2" to-layer="2537" to-port="0" />
		<edge from-layer="2532" from-port="2" to-layer="2537" to-port="1" />
		<edge from-layer="2533" from-port="2" to-layer="2543" to-port="0" />
		<edge from-layer="2534" from-port="2" to-layer="2536" to-port="0" />
		<edge from-layer="2535" from-port="0" to-layer="2536" to-port="1" />
		<edge from-layer="2536" from-port="2" to-layer="2538" to-port="0" />
		<edge from-layer="2537" from-port="2" to-layer="2538" to-port="1" />
		<edge from-layer="2538" from-port="2" to-layer="2541" to-port="0" />
		<edge from-layer="2539" from-port="0" to-layer="2540" to-port="0" />
		<edge from-layer="2540" from-port="1" to-layer="2541" to-port="1" />
		<edge from-layer="2541" from-port="2" to-layer="2542" to-port="0" />
		<edge from-layer="2542" from-port="1" to-layer="2543" to-port="1" />
		<edge from-layer="2543" from-port="2" to-layer="2546" to-port="0" />
		<edge from-layer="2544" from-port="0" to-layer="2545" to-port="0" />
		<edge from-layer="2545" from-port="1" to-layer="2546" to-port="1" />
		<edge from-layer="2546" from-port="2" to-layer="2547" to-port="0" />
		<edge from-layer="2547" from-port="2" to-layer="2550" to-port="0" />
		<edge from-layer="2547" from-port="2" to-layer="2572" to-port="0" />
		<edge from-layer="2548" from-port="0" to-layer="2549" to-port="0" />
		<edge from-layer="2549" from-port="1" to-layer="2550" to-port="1" />
		<edge from-layer="2550" from-port="2" to-layer="2552" to-port="0" />
		<edge from-layer="2550" from-port="2" to-layer="2567" to-port="0" />
		<edge from-layer="2551" from-port="0" to-layer="2566" to-port="0" />
		<edge from-layer="2552" from-port="1" to-layer="2555" to-port="0" />
		<edge from-layer="2552" from-port="1" to-layer="2590" to-port="0" />
		<edge from-layer="2552" from-port="1" to-layer="2561" to-port="0" />
		<edge from-layer="2553" from-port="0" to-layer="2555" to-port="1" />
		<edge from-layer="2554" from-port="0" to-layer="2555" to-port="2" />
		<edge from-layer="2555" from-port="3" to-layer="2557" to-port="0" />
		<edge from-layer="2555" from-port="3" to-layer="2603" to-port="1" />
		<edge from-layer="2556" from-port="0" to-layer="2557" to-port="1" />
		<edge from-layer="2557" from-port="2" to-layer="2566" to-port="1" />
		<edge from-layer="2557" from-port="2" to-layer="2591" to-port="1" />
		<edge from-layer="2558" from-port="0" to-layer="2591" to-port="2" />
		<edge from-layer="2558" from-port="0" to-layer="2566" to-port="2" />
		<edge from-layer="2559" from-port="0" to-layer="2561" to-port="1" />
		<edge from-layer="2560" from-port="0" to-layer="2561" to-port="2" />
		<edge from-layer="2561" from-port="3" to-layer="2563" to-port="0" />
		<edge from-layer="2562" from-port="0" to-layer="2563" to-port="1" />
		<edge from-layer="2563" from-port="2" to-layer="2565" to-port="0" />
		<edge from-layer="2564" from-port="0" to-layer="2565" to-port="1" />
		<edge from-layer="2565" from-port="2" to-layer="2566" to-port="3" />
		<edge from-layer="2565" from-port="2" to-layer="2591" to-port="3" />
		<edge from-layer="2566" from-port="4" to-layer="2567" to-port="1" />
		<edge from-layer="2567" from-port="2" to-layer="2569" to-port="0" />
		<edge from-layer="2568" from-port="0" to-layer="2569" to-port="1" />
		<edge from-layer="2569" from-port="2" to-layer="2614" to-port="0" />
		<edge from-layer="2569" from-port="2" to-layer="2595" to-port="0" />
		<edge from-layer="2570" from-port="0" to-layer="2571" to-port="0" />
		<edge from-layer="2571" from-port="1" to-layer="2572" to-port="1" />
		<edge from-layer="2572" from-port="2" to-layer="2629" to-port="0" />
		<edge from-layer="2572" from-port="2" to-layer="2576" to-port="0" />
		<edge from-layer="2572" from-port="2" to-layer="2587" to-port="0" />
		<edge from-layer="2573" from-port="0" to-layer="2587" to-port="1" />
		<edge from-layer="2574" from-port="0" to-layer="2585" to-port="0" />
		<edge from-layer="2575" from-port="0" to-layer="2585" to-port="1" />
		<edge from-layer="2576" from-port="1" to-layer="2579" to-port="0" />
		<edge from-layer="2577" from-port="0" to-layer="2579" to-port="1" />
		<edge from-layer="2578" from-port="0" to-layer="2579" to-port="2" />
		<edge from-layer="2579" from-port="3" to-layer="2581" to-port="0" />
		<edge from-layer="2580" from-port="0" to-layer="2581" to-port="1" />
		<edge from-layer="2581" from-port="2" to-layer="2583" to-port="0" />
		<edge from-layer="2582" from-port="0" to-layer="2583" to-port="1" />
		<edge from-layer="2583" from-port="2" to-layer="2585" to-port="2" />
		<edge from-layer="2583" from-port="2" to-layer="2623" to-port="2" />
		<edge from-layer="2583" from-port="2" to-layer="2626" to-port="0" />
		<edge from-layer="2584" from-port="0" to-layer="2585" to-port="3" />
		<edge from-layer="2585" from-port="4" to-layer="2587" to-port="2" />
		<edge from-layer="2586" from-port="0" to-layer="2587" to-port="3" />
		<edge from-layer="2587" from-port="4" to-layer="2592" to-port="0" />
		<edge from-layer="2588" from-port="0" to-layer="2590" to-port="1" />
		<edge from-layer="2589" from-port="0" to-layer="2590" to-port="2" />
		<edge from-layer="2590" from-port="3" to-layer="2591" to-port="0" />
		<edge from-layer="2591" from-port="4" to-layer="2630" to-port="1" />
		<edge from-layer="2591" from-port="4" to-layer="2592" to-port="1" />
		<edge from-layer="2592" from-port="2" to-layer="2594" to-port="0" />
		<edge from-layer="2593" from-port="0" to-layer="2594" to-port="1" />
		<edge from-layer="2594" from-port="2" to-layer="2595" to-port="1" />
		<edge from-layer="2595" from-port="2" to-layer="2598" to-port="0" />
		<edge from-layer="2596" from-port="0" to-layer="2597" to-port="0" />
		<edge from-layer="2597" from-port="1" to-layer="2598" to-port="1" />
		<edge from-layer="2598" from-port="2" to-layer="2618" to-port="0" />
		<edge from-layer="2599" from-port="0" to-layer="2600" to-port="0" />
		<edge from-layer="2600" from-port="1" to-layer="2613" to-port="0" />
		<edge from-layer="2601" from-port="0" to-layer="2603" to-port="0" />
		<edge from-layer="2602" from-port="0" to-layer="2603" to-port="2" />
		<edge from-layer="2603" from-port="3" to-layer="2607" to-port="0" />
		<edge from-layer="2603" from-port="3" to-layer="2605" to-port="0" />
		<edge from-layer="2604" from-port="0" to-layer="2605" to-port="1" />
		<edge from-layer="2605" from-port="2" to-layer="2608" to-port="0" />
		<edge from-layer="2606" from-port="0" to-layer="2607" to-port="1" />
		<edge from-layer="2607" from-port="2" to-layer="2608" to-port="1" />
		<edge from-layer="2608" from-port="2" to-layer="2609" to-port="0" />
		<edge from-layer="2609" from-port="1" to-layer="2611" to-port="0" />
		<edge from-layer="2610" from-port="0" to-layer="2611" to-port="1" />
		<edge from-layer="2611" from-port="2" to-layer="2613" to-port="1" />
		<edge from-layer="2612" from-port="0" to-layer="2613" to-port="2" />
		<edge from-layer="2613" from-port="3" to-layer="2614" to-port="1" />
		<edge from-layer="2614" from-port="2" to-layer="2617" to-port="0" />
		<edge from-layer="2615" from-port="0" to-layer="2616" to-port="0" />
		<edge from-layer="2616" from-port="1" to-layer="2617" to-port="1" />
		<edge from-layer="2617" from-port="2" to-layer="2618" to-port="1" />
		<edge from-layer="2618" from-port="2" to-layer="2619" to-port="0" />
		<edge from-layer="2619" from-port="1" to-layer="2633" to-port="0" />
		<edge from-layer="2620" from-port="0" to-layer="2623" to-port="0" />
		<edge from-layer="2621" from-port="0" to-layer="2627" to-port="1" />
		<edge from-layer="2621" from-port="0" to-layer="2623" to-port="1" />
		<edge from-layer="2622" from-port="0" to-layer="2627" to-port="3" />
		<edge from-layer="2622" from-port="0" to-layer="2623" to-port="3" />
		<edge from-layer="2623" from-port="4" to-layer="2629" to-port="1" />
		<edge from-layer="2624" from-port="0" to-layer="2627" to-port="0" />
		<edge from-layer="2625" from-port="0" to-layer="2626" to-port="1" />
		<edge from-layer="2626" from-port="2" to-layer="2627" to-port="2" />
		<edge from-layer="2627" from-port="4" to-layer="2629" to-port="2" />
		<edge from-layer="2628" from-port="0" to-layer="2629" to-port="3" />
		<edge from-layer="2629" from-port="4" to-layer="2630" to-port="0" />
		<edge from-layer="2630" from-port="2" to-layer="2632" to-port="0" />
		<edge from-layer="2631" from-port="0" to-layer="2632" to-port="1" />
		<edge from-layer="2632" from-port="2" to-layer="2633" to-port="1" />
		<edge from-layer="2633" from-port="2" to-layer="2635" to-port="0" />
		<edge from-layer="2633" from-port="2" to-layer="2636" to-port="0" />
		<edge from-layer="2634" from-port="0" to-layer="2635" to-port="1" />
		<edge from-layer="2635" from-port="2" to-layer="2648" to-port="0" />
		<edge from-layer="2636" from-port="1" to-layer="2642" to-port="0" />
		<edge from-layer="2636" from-port="1" to-layer="2645" to-port="0" />
		<edge from-layer="2636" from-port="1" to-layer="2639" to-port="0" />
		<edge from-layer="2637" from-port="0" to-layer="2639" to-port="1" />
		<edge from-layer="2638" from-port="0" to-layer="2639" to-port="2" />
		<edge from-layer="2639" from-port="3" to-layer="2647" to-port="0" />
		<edge from-layer="2640" from-port="0" to-layer="2642" to-port="1" />
		<edge from-layer="2641" from-port="0" to-layer="2642" to-port="2" />
		<edge from-layer="2642" from-port="3" to-layer="2646" to-port="0" />
		<edge from-layer="2643" from-port="0" to-layer="2645" to-port="1" />
		<edge from-layer="2644" from-port="0" to-layer="2645" to-port="2" />
		<edge from-layer="2645" from-port="3" to-layer="2646" to-port="1" />
		<edge from-layer="2646" from-port="2" to-layer="2647" to-port="1" />
		<edge from-layer="2647" from-port="2" to-layer="2648" to-port="1" />
		<edge from-layer="2648" from-port="2" to-layer="2651" to-port="0" />
		<edge from-layer="2649" from-port="0" to-layer="2650" to-port="0" />
		<edge from-layer="2650" from-port="1" to-layer="2651" to-port="1" />
		<edge from-layer="2651" from-port="2" to-layer="2652" to-port="1" />
		<edge from-layer="2652" from-port="2" to-layer="2653" to-port="0" />
		<edge from-layer="2653" from-port="2" to-layer="2654" to-port="0" />
		<edge from-layer="2653" from-port="2" to-layer="2731" to-port="1" />
		<edge from-layer="2653" from-port="2" to-layer="2663" to-port="0" />
		<edge from-layer="2654" from-port="1" to-layer="2680" to-port="1" />
		<edge from-layer="2654" from-port="1" to-layer="2658" to-port="0" />
		<edge from-layer="2655" from-port="0" to-layer="2658" to-port="1" />
		<edge from-layer="2656" from-port="0" to-layer="2658" to-port="2" />
		<edge from-layer="2657" from-port="0" to-layer="2658" to-port="3" />
		<edge from-layer="2658" from-port="4" to-layer="2660" to-port="0" />
		<edge from-layer="2659" from-port="0" to-layer="2660" to-port="1" />
		<edge from-layer="2660" from-port="2" to-layer="2662" to-port="0" />
		<edge from-layer="2661" from-port="0" to-layer="2662" to-port="1" />
		<edge from-layer="2662" from-port="2" to-layer="2663" to-port="1" />
		<edge from-layer="2663" from-port="2" to-layer="2667" to-port="0" />
		<edge from-layer="2663" from-port="2" to-layer="2667" to-port="1" />
		<edge from-layer="2663" from-port="2" to-layer="2665" to-port="0" />
		<edge from-layer="2663" from-port="2" to-layer="2666" to-port="0" />
		<edge from-layer="2664" from-port="0" to-layer="2665" to-port="1" />
		<edge from-layer="2665" from-port="2" to-layer="2666" to-port="1" />
		<edge from-layer="2665" from-port="2" to-layer="2670" to-port="1" />
		<edge from-layer="2665" from-port="2" to-layer="2670" to-port="0" />
		<edge from-layer="2666" from-port="2" to-layer="2676" to-port="0" />
		<edge from-layer="2667" from-port="2" to-layer="2669" to-port="0" />
		<edge from-layer="2668" from-port="0" to-layer="2669" to-port="1" />
		<edge from-layer="2669" from-port="2" to-layer="2671" to-port="0" />
		<edge from-layer="2670" from-port="2" to-layer="2671" to-port="1" />
		<edge from-layer="2671" from-port="2" to-layer="2674" to-port="0" />
		<edge from-layer="2672" from-port="0" to-layer="2673" to-port="0" />
		<edge from-layer="2673" from-port="1" to-layer="2674" to-port="1" />
		<edge from-layer="2674" from-port="2" to-layer="2675" to-port="0" />
		<edge from-layer="2675" from-port="1" to-layer="2676" to-port="1" />
		<edge from-layer="2676" from-port="2" to-layer="2679" to-port="0" />
		<edge from-layer="2677" from-port="0" to-layer="2678" to-port="0" />
		<edge from-layer="2678" from-port="1" to-layer="2679" to-port="1" />
		<edge from-layer="2679" from-port="2" to-layer="2680" to-port="0" />
		<edge from-layer="2680" from-port="2" to-layer="2682" to-port="0" />
		<edge from-layer="2681" from-port="0" to-layer="2682" to-port="1" />
		<edge from-layer="2682" from-port="2" to-layer="2685" to-port="0" />
		<edge from-layer="2683" from-port="0" to-layer="2684" to-port="0" />
		<edge from-layer="2684" from-port="1" to-layer="2685" to-port="1" />
		<edge from-layer="2685" from-port="2" to-layer="2688" to-port="0" />
		<edge from-layer="2686" from-port="0" to-layer="2687" to-port="0" />
		<edge from-layer="2687" from-port="1" to-layer="2688" to-port="1" />
		<edge from-layer="2688" from-port="2" to-layer="2692" to-port="0" />
		<edge from-layer="2688" from-port="2" to-layer="2713" to-port="0" />
		<edge from-layer="2688" from-port="2" to-layer="2703" to-port="0" />
		<edge from-layer="2689" from-port="0" to-layer="2703" to-port="1" />
		<edge from-layer="2690" from-port="0" to-layer="2701" to-port="0" />
		<edge from-layer="2691" from-port="0" to-layer="2701" to-port="1" />
		<edge from-layer="2692" from-port="1" to-layer="2695" to-port="0" />
		<edge from-layer="2693" from-port="0" to-layer="2695" to-port="1" />
		<edge from-layer="2694" from-port="0" to-layer="2695" to-port="2" />
		<edge from-layer="2695" from-port="3" to-layer="2697" to-port="0" />
		<edge from-layer="2696" from-port="0" to-layer="2697" to-port="1" />
		<edge from-layer="2697" from-port="2" to-layer="2699" to-port="0" />
		<edge from-layer="2698" from-port="0" to-layer="2699" to-port="1" />
		<edge from-layer="2699" from-port="2" to-layer="2701" to-port="2" />
		<edge from-layer="2699" from-port="2" to-layer="2707" to-port="2" />
		<edge from-layer="2699" from-port="2" to-layer="2710" to-port="0" />
		<edge from-layer="2700" from-port="0" to-layer="2701" to-port="3" />
		<edge from-layer="2701" from-port="4" to-layer="2703" to-port="2" />
		<edge from-layer="2702" from-port="0" to-layer="2703" to-port="3" />
		<edge from-layer="2703" from-port="4" to-layer="2715" to-port="0" />
		<edge from-layer="2704" from-port="0" to-layer="2707" to-port="0" />
		<edge from-layer="2705" from-port="0" to-layer="2707" to-port="1" />
		<edge from-layer="2705" from-port="0" to-layer="2711" to-port="1" />
		<edge from-layer="2706" from-port="0" to-layer="2707" to-port="3" />
		<edge from-layer="2706" from-port="0" to-layer="2711" to-port="3" />
		<edge from-layer="2707" from-port="4" to-layer="2713" to-port="1" />
		<edge from-layer="2708" from-port="0" to-layer="2711" to-port="0" />
		<edge from-layer="2709" from-port="0" to-layer="2710" to-port="1" />
		<edge from-layer="2710" from-port="2" to-layer="2711" to-port="2" />
		<edge from-layer="2711" from-port="4" to-layer="2713" to-port="2" />
		<edge from-layer="2712" from-port="0" to-layer="2713" to-port="3" />
		<edge from-layer="2713" from-port="4" to-layer="2714" to-port="0" />
		<edge from-layer="2714" from-port="1" to-layer="2715" to-port="1" />
		<edge from-layer="2715" from-port="2" to-layer="2718" to-port="0" />
		<edge from-layer="2716" from-port="0" to-layer="2717" to-port="0" />
		<edge from-layer="2717" from-port="1" to-layer="2718" to-port="1" />
		<edge from-layer="2718" from-port="2" to-layer="2721" to-port="0" />
		<edge from-layer="2719" from-port="0" to-layer="2720" to-port="0" />
		<edge from-layer="2720" from-port="1" to-layer="2721" to-port="1" />
		<edge from-layer="2721" from-port="2" to-layer="2722" to-port="0" />
		<edge from-layer="2722" from-port="1" to-layer="2725" to-port="0" />
		<edge from-layer="2723" from-port="0" to-layer="2724" to-port="0" />
		<edge from-layer="2724" from-port="1" to-layer="2725" to-port="1" />
		<edge from-layer="2725" from-port="2" to-layer="2728" to-port="0" />
		<edge from-layer="2726" from-port="0" to-layer="2727" to-port="0" />
		<edge from-layer="2727" from-port="1" to-layer="2728" to-port="1" />
		<edge from-layer="2728" from-port="2" to-layer="2730" to-port="0" />
		<edge from-layer="2729" from-port="0" to-layer="2730" to-port="1" />
		<edge from-layer="2730" from-port="2" to-layer="2731" to-port="0" />
		<edge from-layer="2731" from-port="2" to-layer="2770" to-port="1" />
		<edge from-layer="2731" from-port="2" to-layer="2741" to-port="0" />
		<edge from-layer="2731" from-port="2" to-layer="2732" to-port="0" />
		<edge from-layer="2732" from-port="1" to-layer="2758" to-port="1" />
		<edge from-layer="2732" from-port="1" to-layer="2736" to-port="0" />
		<edge from-layer="2733" from-port="0" to-layer="2736" to-port="1" />
		<edge from-layer="2734" from-port="0" to-layer="2736" to-port="2" />
		<edge from-layer="2735" from-port="0" to-layer="2736" to-port="3" />
		<edge from-layer="2736" from-port="4" to-layer="2738" to-port="0" />
		<edge from-layer="2737" from-port="0" to-layer="2738" to-port="1" />
		<edge from-layer="2738" from-port="2" to-layer="2740" to-port="0" />
		<edge from-layer="2739" from-port="0" to-layer="2740" to-port="1" />
		<edge from-layer="2740" from-port="2" to-layer="2741" to-port="1" />
		<edge from-layer="2741" from-port="2" to-layer="2743" to-port="0" />
		<edge from-layer="2741" from-port="2" to-layer="2745" to-port="0" />
		<edge from-layer="2741" from-port="2" to-layer="2745" to-port="1" />
		<edge from-layer="2741" from-port="2" to-layer="2744" to-port="0" />
		<edge from-layer="2742" from-port="0" to-layer="2743" to-port="1" />
		<edge from-layer="2743" from-port="2" to-layer="2748" to-port="0" />
		<edge from-layer="2743" from-port="2" to-layer="2744" to-port="1" />
		<edge from-layer="2743" from-port="2" to-layer="2748" to-port="1" />
		<edge from-layer="2744" from-port="2" to-layer="2754" to-port="0" />
		<edge from-layer="2745" from-port="2" to-layer="2747" to-port="0" />
		<edge from-layer="2746" from-port="0" to-layer="2747" to-port="1" />
		<edge from-layer="2747" from-port="2" to-layer="2749" to-port="0" />
		<edge from-layer="2748" from-port="2" to-layer="2749" to-port="1" />
		<edge from-layer="2749" from-port="2" to-layer="2752" to-port="0" />
		<edge from-layer="2750" from-port="0" to-layer="2751" to-port="0" />
		<edge from-layer="2751" from-port="1" to-layer="2752" to-port="1" />
		<edge from-layer="2752" from-port="2" to-layer="2753" to-port="0" />
		<edge from-layer="2753" from-port="1" to-layer="2754" to-port="1" />
		<edge from-layer="2754" from-port="2" to-layer="2757" to-port="0" />
		<edge from-layer="2755" from-port="0" to-layer="2756" to-port="0" />
		<edge from-layer="2756" from-port="1" to-layer="2757" to-port="1" />
		<edge from-layer="2757" from-port="2" to-layer="2758" to-port="0" />
		<edge from-layer="2758" from-port="2" to-layer="2761" to-port="0" />
		<edge from-layer="2759" from-port="0" to-layer="2760" to-port="0" />
		<edge from-layer="2760" from-port="1" to-layer="2761" to-port="1" />
		<edge from-layer="2761" from-port="2" to-layer="2762" to-port="1" />
		<edge from-layer="2762" from-port="2" to-layer="2763" to-port="0" />
		<edge from-layer="2763" from-port="1" to-layer="2766" to-port="0" />
		<edge from-layer="2764" from-port="0" to-layer="2765" to-port="0" />
		<edge from-layer="2765" from-port="1" to-layer="2766" to-port="1" />
		<edge from-layer="2766" from-port="2" to-layer="2769" to-port="0" />
		<edge from-layer="2767" from-port="0" to-layer="2768" to-port="0" />
		<edge from-layer="2768" from-port="1" to-layer="2769" to-port="1" />
		<edge from-layer="2769" from-port="2" to-layer="2770" to-port="0" />
		<edge from-layer="2770" from-port="2" to-layer="2771" to-port="0" />
		<edge from-layer="2770" from-port="2" to-layer="2780" to-port="0" />
		<edge from-layer="2771" from-port="1" to-layer="2775" to-port="0" />
		<edge from-layer="2771" from-port="1" to-layer="2797" to-port="1" />
		<edge from-layer="2772" from-port="0" to-layer="2775" to-port="1" />
		<edge from-layer="2773" from-port="0" to-layer="2775" to-port="2" />
		<edge from-layer="2774" from-port="0" to-layer="2775" to-port="3" />
		<edge from-layer="2775" from-port="4" to-layer="2777" to-port="0" />
		<edge from-layer="2776" from-port="0" to-layer="2777" to-port="1" />
		<edge from-layer="2777" from-port="2" to-layer="2779" to-port="0" />
		<edge from-layer="2778" from-port="0" to-layer="2779" to-port="1" />
		<edge from-layer="2779" from-port="2" to-layer="2780" to-port="1" />
		<edge from-layer="2780" from-port="2" to-layer="2784" to-port="1" />
		<edge from-layer="2780" from-port="2" to-layer="2784" to-port="0" />
		<edge from-layer="2780" from-port="2" to-layer="2783" to-port="0" />
		<edge from-layer="2780" from-port="2" to-layer="2782" to-port="0" />
		<edge from-layer="2781" from-port="0" to-layer="2782" to-port="1" />
		<edge from-layer="2782" from-port="2" to-layer="2783" to-port="1" />
		<edge from-layer="2782" from-port="2" to-layer="2787" to-port="1" />
		<edge from-layer="2782" from-port="2" to-layer="2787" to-port="0" />
		<edge from-layer="2783" from-port="2" to-layer="2793" to-port="0" />
		<edge from-layer="2784" from-port="2" to-layer="2786" to-port="0" />
		<edge from-layer="2785" from-port="0" to-layer="2786" to-port="1" />
		<edge from-layer="2786" from-port="2" to-layer="2788" to-port="0" />
		<edge from-layer="2787" from-port="2" to-layer="2788" to-port="1" />
		<edge from-layer="2788" from-port="2" to-layer="2791" to-port="0" />
		<edge from-layer="2789" from-port="0" to-layer="2790" to-port="0" />
		<edge from-layer="2790" from-port="1" to-layer="2791" to-port="1" />
		<edge from-layer="2791" from-port="2" to-layer="2792" to-port="0" />
		<edge from-layer="2792" from-port="1" to-layer="2793" to-port="1" />
		<edge from-layer="2793" from-port="2" to-layer="2796" to-port="0" />
		<edge from-layer="2794" from-port="0" to-layer="2795" to-port="0" />
		<edge from-layer="2795" from-port="1" to-layer="2796" to-port="1" />
		<edge from-layer="2796" from-port="2" to-layer="2797" to-port="0" />
		<edge from-layer="2797" from-port="2" to-layer="2798" to-port="0" />
		<edge from-layer="2798" from-port="2" to-layer="2802" to-port="0" />
		<edge from-layer="2799" from-port="0" to-layer="2801" to-port="1" />
		<edge from-layer="2800" from-port="0" to-layer="2801" to-port="2" />
		<edge from-layer="2801" from-port="3" to-layer="2802" to-port="1" />
		<edge from-layer="2802" from-port="2" to-layer="2804" to-port="0" />
		<edge from-layer="2803" from-port="0" to-layer="2804" to-port="1" />
		<edge from-layer="2804" from-port="2" to-layer="2819" to-port="1" />
		<edge from-layer="2804" from-port="2" to-layer="2809" to-port="0" />
		<edge from-layer="2804" from-port="2" to-layer="2939" to-port="1" />
		<edge from-layer="2805" from-port="0" to-layer="2809" to-port="1" />
		<edge from-layer="2806" from-port="0" to-layer="2809" to-port="2" />
		<edge from-layer="2807" from-port="0" to-layer="2808" to-port="0" />
		<edge from-layer="2808" from-port="1" to-layer="2809" to-port="3" />
		<edge from-layer="2809" from-port="4" to-layer="2812" to-port="0" />
		<edge from-layer="2809" from-port="4" to-layer="2932" to-port="0" />
		<edge from-layer="2810" from-port="0" to-layer="2811" to-port="0" />
		<edge from-layer="2811" from-port="1" to-layer="2812" to-port="1" />
		<edge from-layer="2812" from-port="2" to-layer="2815" to-port="0" />
		<edge from-layer="2813" from-port="0" to-layer="2814" to-port="0" />
		<edge from-layer="2814" from-port="1" to-layer="2815" to-port="1" />
		<edge from-layer="2815" from-port="2" to-layer="2817" to-port="0" />
		<edge from-layer="2816" from-port="0" to-layer="2817" to-port="1" />
		<edge from-layer="2817" from-port="2" to-layer="2818" to-port="0" />
		<edge from-layer="2818" from-port="2" to-layer="2819" to-port="0" />
		<edge from-layer="2819" from-port="2" to-layer="2829" to-port="1" />
		<edge from-layer="2819" from-port="2" to-layer="2822" to-port="0" />
		<edge from-layer="2820" from-port="0" to-layer="2821" to-port="0" />
		<edge from-layer="2821" from-port="1" to-layer="2822" to-port="1" />
		<edge from-layer="2822" from-port="2" to-layer="2825" to-port="0" />
		<edge from-layer="2823" from-port="0" to-layer="2824" to-port="0" />
		<edge from-layer="2824" from-port="1" to-layer="2825" to-port="1" />
		<edge from-layer="2825" from-port="2" to-layer="2827" to-port="0" />
		<edge from-layer="2826" from-port="0" to-layer="2827" to-port="1" />
		<edge from-layer="2827" from-port="2" to-layer="2828" to-port="0" />
		<edge from-layer="2828" from-port="2" to-layer="2829" to-port="0" />
		<edge from-layer="2829" from-port="2" to-layer="2839" to-port="1" />
		<edge from-layer="2829" from-port="2" to-layer="2832" to-port="0" />
		<edge from-layer="2830" from-port="0" to-layer="2831" to-port="0" />
		<edge from-layer="2831" from-port="1" to-layer="2832" to-port="1" />
		<edge from-layer="2832" from-port="2" to-layer="2835" to-port="0" />
		<edge from-layer="2833" from-port="0" to-layer="2834" to-port="0" />
		<edge from-layer="2834" from-port="1" to-layer="2835" to-port="1" />
		<edge from-layer="2835" from-port="2" to-layer="2837" to-port="0" />
		<edge from-layer="2836" from-port="0" to-layer="2837" to-port="1" />
		<edge from-layer="2837" from-port="2" to-layer="2838" to-port="0" />
		<edge from-layer="2838" from-port="2" to-layer="2839" to-port="0" />
		<edge from-layer="2839" from-port="2" to-layer="2842" to-port="0" />
		<edge from-layer="2840" from-port="0" to-layer="2841" to-port="0" />
		<edge from-layer="2841" from-port="1" to-layer="2842" to-port="1" />
		<edge from-layer="2842" from-port="2" to-layer="2845" to-port="0" />
		<edge from-layer="2843" from-port="0" to-layer="2844" to-port="0" />
		<edge from-layer="2844" from-port="1" to-layer="2845" to-port="1" />
		<edge from-layer="2845" from-port="2" to-layer="2847" to-port="0" />
		<edge from-layer="2846" from-port="0" to-layer="2847" to-port="1" />
		<edge from-layer="2847" from-port="2" to-layer="2848" to-port="0" />
		<edge from-layer="2848" from-port="2" to-layer="2851" to-port="0" />
		<edge from-layer="2849" from-port="0" to-layer="2850" to-port="0" />
		<edge from-layer="2850" from-port="1" to-layer="2851" to-port="1" />
		<edge from-layer="2851" from-port="2" to-layer="2854" to-port="0" />
		<edge from-layer="2852" from-port="0" to-layer="2853" to-port="0" />
		<edge from-layer="2853" from-port="1" to-layer="2854" to-port="1" />
		<edge from-layer="2854" from-port="2" to-layer="2869" to-port="0" />
		<edge from-layer="2854" from-port="2" to-layer="2857" to-port="0" />
		<edge from-layer="2855" from-port="0" to-layer="2868" to-port="0" />
		<edge from-layer="2856" from-port="0" to-layer="2868" to-port="1" />
		<edge from-layer="2857" from-port="1" to-layer="2874" to-port="0" />
		<edge from-layer="2857" from-port="1" to-layer="2877" to-port="0" />
		<edge from-layer="2857" from-port="1" to-layer="2867" to-port="0" />
		<edge from-layer="2857" from-port="1" to-layer="2860" to-port="0" />
		<edge from-layer="2858" from-port="0" to-layer="2860" to-port="1" />
		<edge from-layer="2859" from-port="0" to-layer="2860" to-port="2" />
		<edge from-layer="2860" from-port="3" to-layer="2862" to-port="0" />
		<edge from-layer="2861" from-port="0" to-layer="2862" to-port="1" />
		<edge from-layer="2862" from-port="2" to-layer="2864" to-port="0" />
		<edge from-layer="2863" from-port="0" to-layer="2864" to-port="1" />
		<edge from-layer="2864" from-port="2" to-layer="2868" to-port="2" />
		<edge from-layer="2864" from-port="2" to-layer="2879" to-port="1" />
		<edge from-layer="2865" from-port="0" to-layer="2867" to-port="1" />
		<edge from-layer="2866" from-port="0" to-layer="2867" to-port="2" />
		<edge from-layer="2867" from-port="3" to-layer="2868" to-port="3" />
		<edge from-layer="2868" from-port="4" to-layer="2869" to-port="1" />
		<edge from-layer="2869" from-port="2" to-layer="2871" to-port="0" />
		<edge from-layer="2870" from-port="0" to-layer="2871" to-port="1" />
		<edge from-layer="2871" from-port="2" to-layer="2880" to-port="0" />
		<edge from-layer="2872" from-port="0" to-layer="2874" to-port="1" />
		<edge from-layer="2873" from-port="0" to-layer="2874" to-port="2" />
		<edge from-layer="2874" from-port="3" to-layer="2879" to-port="0" />
		<edge from-layer="2875" from-port="0" to-layer="2877" to-port="1" />
		<edge from-layer="2876" from-port="0" to-layer="2877" to-port="2" />
		<edge from-layer="2877" from-port="3" to-layer="2879" to-port="2" />
		<edge from-layer="2878" from-port="0" to-layer="2879" to-port="3" />
		<edge from-layer="2879" from-port="4" to-layer="2880" to-port="1" />
		<edge from-layer="2880" from-port="2" to-layer="2883" to-port="0" />
		<edge from-layer="2881" from-port="0" to-layer="2882" to-port="0" />
		<edge from-layer="2882" from-port="1" to-layer="2883" to-port="1" />
		<edge from-layer="2883" from-port="2" to-layer="2886" to-port="0" />
		<edge from-layer="2884" from-port="0" to-layer="2885" to-port="0" />
		<edge from-layer="2885" from-port="1" to-layer="2886" to-port="1" />
		<edge from-layer="2886" from-port="2" to-layer="2888" to-port="0" />
		<edge from-layer="2887" from-port="0" to-layer="2888" to-port="1" />
		<edge from-layer="2888" from-port="2" to-layer="2891" to-port="0" />
		<edge from-layer="2889" from-port="0" to-layer="2890" to-port="0" />
		<edge from-layer="2890" from-port="1" to-layer="2891" to-port="1" />
		<edge from-layer="2891" from-port="2" to-layer="2894" to-port="0" />
		<edge from-layer="2892" from-port="0" to-layer="2893" to-port="0" />
		<edge from-layer="2893" from-port="1" to-layer="2894" to-port="1" />
		<edge from-layer="2894" from-port="2" to-layer="2897" to-port="0" />
		<edge from-layer="2895" from-port="0" to-layer="2896" to-port="0" />
		<edge from-layer="2896" from-port="1" to-layer="2897" to-port="1" />
		<edge from-layer="2897" from-port="2" to-layer="2899" to-port="0" />
		<edge from-layer="2898" from-port="0" to-layer="2899" to-port="1" />
		<edge from-layer="2899" from-port="2" to-layer="2901" to-port="0" />
		<edge from-layer="2900" from-port="0" to-layer="2901" to-port="1" />
		<edge from-layer="2901" from-port="2" to-layer="2904" to-port="0" />
		<edge from-layer="2902" from-port="0" to-layer="2903" to-port="0" />
		<edge from-layer="2903" from-port="1" to-layer="2904" to-port="1" />
		<edge from-layer="2904" from-port="2" to-layer="2906" to-port="0" />
		<edge from-layer="2905" from-port="0" to-layer="2906" to-port="1" />
		<edge from-layer="2906" from-port="2" to-layer="2908" to-port="0" />
		<edge from-layer="2907" from-port="0" to-layer="2908" to-port="1" />
		<edge from-layer="2908" from-port="2" to-layer="2909" to-port="0" />
		<edge from-layer="2909" from-port="2" to-layer="3017" to-port="0" />
		<edge from-layer="2909" from-port="2" to-layer="2929" to-port="0" />
		<edge from-layer="2910" from-port="0" to-layer="2911" to-port="0" />
		<edge from-layer="2911" from-port="1" to-layer="2912" to-port="1" />
		<edge from-layer="2912" from-port="2" to-layer="2925" to-port="0" />
		<edge from-layer="2913" from-port="2" to-layer="2914" to-port="0" />
		<edge from-layer="2914" from-port="1" to-layer="2925" to-port="1" />
		<edge from-layer="2915" from-port="1" to-layer="2924" to-port="0" />
		<edge from-layer="2916" from-port="0" to-layer="2917" to-port="0" />
		<edge from-layer="2917" from-port="1" to-layer="2923" to-port="0" />
		<edge from-layer="2918" from-port="0" to-layer="2919" to-port="0" />
		<edge from-layer="2919" from-port="1" to-layer="2920" to-port="1" />
		<edge from-layer="2920" from-port="2" to-layer="2921" to-port="1" />
		<edge from-layer="2921" from-port="2" to-layer="2922" to-port="0" />
		<edge from-layer="2922" from-port="1" to-layer="2923" to-port="1" />
		<edge from-layer="2923" from-port="2" to-layer="2924" to-port="1" />
		<edge from-layer="2924" from-port="2" to-layer="2925" to-port="2" />
		<edge from-layer="2925" from-port="3" to-layer="2927" to-port="0" />
		<edge from-layer="2926" from-port="0" to-layer="2927" to-port="1" />
		<edge from-layer="2927" from-port="2" to-layer="2928" to-port="0" />
		<edge from-layer="2927" from-port="2" to-layer="3016" to-port="0" />
		<edge from-layer="2928" from-port="1" to-layer="2929" to-port="1" />
		<edge from-layer="2929" from-port="2" to-layer="3014" to-port="0" />
		<edge from-layer="2930" from-port="0" to-layer="2931" to-port="0" />
		<edge from-layer="2931" from-port="1" to-layer="2932" to-port="1" />
		<edge from-layer="2932" from-port="2" to-layer="2935" to-port="0" />
		<edge from-layer="2933" from-port="0" to-layer="2934" to-port="0" />
		<edge from-layer="2934" from-port="1" to-layer="2935" to-port="1" />
		<edge from-layer="2935" from-port="2" to-layer="2937" to-port="0" />
		<edge from-layer="2936" from-port="0" to-layer="2937" to-port="1" />
		<edge from-layer="2937" from-port="2" to-layer="2938" to-port="0" />
		<edge from-layer="2938" from-port="2" to-layer="2939" to-port="0" />
		<edge from-layer="2939" from-port="2" to-layer="2949" to-port="1" />
		<edge from-layer="2939" from-port="2" to-layer="2942" to-port="0" />
		<edge from-layer="2940" from-port="0" to-layer="2941" to-port="0" />
		<edge from-layer="2941" from-port="1" to-layer="2942" to-port="1" />
		<edge from-layer="2942" from-port="2" to-layer="2945" to-port="0" />
		<edge from-layer="2943" from-port="0" to-layer="2944" to-port="0" />
		<edge from-layer="2944" from-port="1" to-layer="2945" to-port="1" />
		<edge from-layer="2945" from-port="2" to-layer="2947" to-port="0" />
		<edge from-layer="2946" from-port="0" to-layer="2947" to-port="1" />
		<edge from-layer="2947" from-port="2" to-layer="2948" to-port="0" />
		<edge from-layer="2948" from-port="2" to-layer="2949" to-port="0" />
		<edge from-layer="2949" from-port="2" to-layer="2959" to-port="1" />
		<edge from-layer="2949" from-port="2" to-layer="2952" to-port="0" />
		<edge from-layer="2950" from-port="0" to-layer="2951" to-port="0" />
		<edge from-layer="2951" from-port="1" to-layer="2952" to-port="1" />
		<edge from-layer="2952" from-port="2" to-layer="2955" to-port="0" />
		<edge from-layer="2953" from-port="0" to-layer="2954" to-port="0" />
		<edge from-layer="2954" from-port="1" to-layer="2955" to-port="1" />
		<edge from-layer="2955" from-port="2" to-layer="2957" to-port="0" />
		<edge from-layer="2956" from-port="0" to-layer="2957" to-port="1" />
		<edge from-layer="2957" from-port="2" to-layer="2958" to-port="0" />
		<edge from-layer="2958" from-port="2" to-layer="2959" to-port="0" />
		<edge from-layer="2959" from-port="2" to-layer="2962" to-port="0" />
		<edge from-layer="2960" from-port="0" to-layer="2961" to-port="0" />
		<edge from-layer="2961" from-port="1" to-layer="2962" to-port="1" />
		<edge from-layer="2962" from-port="2" to-layer="2965" to-port="0" />
		<edge from-layer="2963" from-port="0" to-layer="2964" to-port="0" />
		<edge from-layer="2964" from-port="1" to-layer="2965" to-port="1" />
		<edge from-layer="2965" from-port="2" to-layer="2967" to-port="0" />
		<edge from-layer="2966" from-port="0" to-layer="2967" to-port="1" />
		<edge from-layer="2967" from-port="2" to-layer="2968" to-port="0" />
		<edge from-layer="2968" from-port="2" to-layer="2971" to-port="0" />
		<edge from-layer="2969" from-port="0" to-layer="2970" to-port="0" />
		<edge from-layer="2970" from-port="1" to-layer="2971" to-port="1" />
		<edge from-layer="2971" from-port="2" to-layer="2974" to-port="0" />
		<edge from-layer="2972" from-port="0" to-layer="2973" to-port="0" />
		<edge from-layer="2973" from-port="1" to-layer="2974" to-port="1" />
		<edge from-layer="2974" from-port="2" to-layer="2989" to-port="0" />
		<edge from-layer="2974" from-port="2" to-layer="2977" to-port="0" />
		<edge from-layer="2975" from-port="0" to-layer="2988" to-port="0" />
		<edge from-layer="2976" from-port="0" to-layer="2988" to-port="1" />
		<edge from-layer="2977" from-port="1" to-layer="2994" to-port="0" />
		<edge from-layer="2977" from-port="1" to-layer="2980" to-port="0" />
		<edge from-layer="2977" from-port="1" to-layer="2997" to-port="0" />
		<edge from-layer="2977" from-port="1" to-layer="2987" to-port="0" />
		<edge from-layer="2978" from-port="0" to-layer="2980" to-port="1" />
		<edge from-layer="2979" from-port="0" to-layer="2980" to-port="2" />
		<edge from-layer="2980" from-port="3" to-layer="2982" to-port="0" />
		<edge from-layer="2981" from-port="0" to-layer="2982" to-port="1" />
		<edge from-layer="2982" from-port="2" to-layer="2984" to-port="0" />
		<edge from-layer="2983" from-port="0" to-layer="2984" to-port="1" />
		<edge from-layer="2984" from-port="2" to-layer="2988" to-port="2" />
		<edge from-layer="2984" from-port="2" to-layer="2999" to-port="1" />
		<edge from-layer="2985" from-port="0" to-layer="2987" to-port="1" />
		<edge from-layer="2986" from-port="0" to-layer="2987" to-port="2" />
		<edge from-layer="2987" from-port="3" to-layer="2988" to-port="3" />
		<edge from-layer="2988" from-port="4" to-layer="2989" to-port="1" />
		<edge from-layer="2989" from-port="2" to-layer="2991" to-port="0" />
		<edge from-layer="2990" from-port="0" to-layer="2991" to-port="1" />
		<edge from-layer="2991" from-port="2" to-layer="3000" to-port="0" />
		<edge from-layer="2992" from-port="0" to-layer="2994" to-port="1" />
		<edge from-layer="2993" from-port="0" to-layer="2994" to-port="2" />
		<edge from-layer="2994" from-port="3" to-layer="2999" to-port="0" />
		<edge from-layer="2995" from-port="0" to-layer="2997" to-port="1" />
		<edge from-layer="2996" from-port="0" to-layer="2997" to-port="2" />
		<edge from-layer="2997" from-port="3" to-layer="2999" to-port="2" />
		<edge from-layer="2998" from-port="0" to-layer="2999" to-port="3" />
		<edge from-layer="2999" from-port="4" to-layer="3000" to-port="1" />
		<edge from-layer="3000" from-port="2" to-layer="3002" to-port="0" />
		<edge from-layer="3001" from-port="0" to-layer="3002" to-port="1" />
		<edge from-layer="3002" from-port="2" to-layer="3003" to-port="0" />
		<edge from-layer="3003" from-port="2" to-layer="3006" to-port="0" />
		<edge from-layer="3004" from-port="0" to-layer="3005" to-port="0" />
		<edge from-layer="3005" from-port="1" to-layer="3006" to-port="1" />
		<edge from-layer="3006" from-port="2" to-layer="3009" to-port="0" />
		<edge from-layer="3007" from-port="0" to-layer="3008" to-port="0" />
		<edge from-layer="3008" from-port="1" to-layer="3009" to-port="1" />
		<edge from-layer="3009" from-port="2" to-layer="3019" to-port="0" />
		<edge from-layer="3009" from-port="2" to-layer="3011" to-port="0" />
		<edge from-layer="3010" from-port="0" to-layer="3011" to-port="2" />
		<edge from-layer="3011" from-port="3" to-layer="3013" to-port="0" />
		<edge from-layer="3012" from-port="0" to-layer="3013" to-port="1" />
		<edge from-layer="3013" from-port="2" to-layer="3014" to-port="1" />
		<edge from-layer="3014" from-port="2" to-layer="3015" to-port="0" />
		<edge from-layer="3016" from-port="1" to-layer="3017" to-port="1" />
		<edge from-layer="3017" from-port="2" to-layer="3022" to-port="0" />
		<edge from-layer="3018" from-port="0" to-layer="3019" to-port="2" />
		<edge from-layer="3019" from-port="3" to-layer="3021" to-port="0" />
		<edge from-layer="3020" from-port="0" to-layer="3021" to-port="1" />
		<edge from-layer="3021" from-port="2" to-layer="3022" to-port="1" />
		<edge from-layer="3022" from-port="2" to-layer="3023" to-port="0" />
	</edges>
	<rt_info>
		<Runtime_version value="2023.2.0-13089-cfd42bd2cb0-HEAD" />
		<conversion_parameters>
			<input_model value="DIR\CMGAN_3200.onnx" />
			<is_python_object value="False" />
		</conversion_parameters>
	</rt_info>
</net>
